src/ppo_checkpoints/Freeway-v4_s0_step92K_actor.pth (torch, 7143 bytes, 2 tensors)

weight f4 [3, 512]
0.0010999617 -0.0046597226 -0.00031437387 -0.0034407296 0.001543772 -0.0050739255 0.0012254614 -0.009365468
0.0029176062 -0.002008465 0.0016475341 -0.0010729249 -0.0044428036 -0.002747096 -1.5811172e-05 0.0014762086
0.0017597398 0.00089587836 0.00026047404 -0.0025559869 0.0010519425 -0.004340155 0.00029916925 -0.0005012896
0.006513038 -0.005853218 0.0001404578 0.0003244535 0.0003482326 -0.0135489395 0.0003437863 -0.0066345357
-0.0041519413 0.00024817535 -0.00021689912 0.000999624 -0.00010294651 0.0012682134 0.0005984778 0.00059372734
-0.0032351925 -0.0015098712 0.0010221133 0.0023004054 -0.0027085526 -0.003583256 -8.299744e-05 -0.003174227
-0.0050905603 -0.0026957693 -0.00067606306 -0.0059800083 -0.0009503203 -0.0045499555 3.543504e-05 -0.00010264336
0.00032834682 -0.0004987692 -0.0042754146 0.0018263629 0.0023204996 -0.0054485537 -0.0031091096 -0.005272866
0.00045592673 -0.00071741507 -0.00015267194 0.0015791547 0.0009816135 -0.0025980864 0.0005997133 -0.0003762441
-9.1184236e-05 0.0015743582 0.0016004774 5.0002218e-05 -0.0051640864 0.00071291334 0.0005674315 -0.0038180677
-0.00019190661 -0.0029377174 -0.0031705424 -0.00027570268 -0.00056173664 0.00021446204 0.0004143446 0.002005039
-0.0002723938 -0.005027652 -0.0050823595 -0.0027717901 0.000756239 -0.0013282781 -4.3981104e-06 -0.00074346026
6.9729234e-05 -0.0033396464 -0.0026796018 -0.0045793774 0.0010686913 -0.002331839 -0.006973111 -0.00070433744
0.00014716695 0.0011156313 6.959241e-05 -0.00038340793 0.000882164 -0.005590887 0.0002624378 0.0030945684
0.00018048618 0.00020208608 -0.00045875716 0.00018618292 0.0015734726 -4.7701287e-05 -0.006217713 -0.00015060343
0.0006751901 -0.000742213 -0.004749177 0.0005141067 -0.0006408103 -0.005556211 0.0007709212 0.00021549442
-0.0003136782 -0.001524683 0.00097193354 -0.000100816804 -0.0012909705 -0.0057487907 -0.004729021 -0.0018607174
0.00481726 -0.0017360534 -3.3930977e-05 0.0012857094 6.79845e-05 -0.00017716667 0.0011516121 0.00075496326
0.0014625433 -0.0017568968 -0.0019217784 -0.0056244787 6.115916e-05 0.00064591266 -0.0003946097 -0.0055038547
-0.00015044547 0.0010599265 -0.004599975 0.001267748 0.0016785528 0.0026838502 -0.0023232198 -0.0027819208
0.000135217 0.0038372977 0.00010912328 -0.003680103 0.0023569518 -0.005308462 -0.006208078 -0.0013192155
-0.0048016794 0.00039039558 -0.0022867648 -0.0076070596 -0.0027867595 0.00033022516 -0.0037237804 0.00042457937
-0.000279179 -0.0014428658 0.0037537091 0.0007428372 -0.00023931751 -0.0048347455 0.001417297 -0.0007835866
6.626884e-05 0.0038721932 -0.00044577656 -0.0029839124 0.00013095768 0.0015533016 0.0010433765 0.003806414
0.0008162355 -0.0063603553 0.0022563941 0.00024219447 0.00016286956 -0.00014489378 -0.004504503 -0.0023341456
-0.0010542582 -0.0005848016 -0.0006290443 -0.00022325102 -0.00793954 -0.0008452496 0.0011022238 -0.0020113746
0.0010959309 0.0010111555 -0.0002640398 -0.001290921 5.4746724e-05 0.0006726367 -0.0015167156 0.0002499369
0.001557648 -0.002720847 -0.0064766444 -0.00014766028 -0.0036074747 -0.0005893953 -0.0012964592 9.430575e-05
-0.002012767 0.00083560514 -0.005709547 0.0012514832 -0.00013213651 -0.006144479 -0.00012722162 -0.0012630236
-0.0028948563 -0.00049970555 -0.0045696925 -0.004618271 -0.005195849 -0.0061562876 -0.0024275891 0.0005018832
-0.00057094474 -0.003255934 0.0012046462 0.00018299272 0.00054773194 -0.0048620696 0.0004922163 -0.0003546439
-0.000420003 -0.0008703847 0.003594493 -0.0027813748 -0.0020685315 0.00038226313 0.0015909976 -0.00024806967
00000000: 972c 903a 96b0 98bb 8cd2 a4b9 dd7d 61bb
00000010: 6558 ca3a 2c43 a6bb a99f a03a 9f71 19bc
00000020: 4f35 3f3b 73a0 03bb 12f2 d73a 63a1 8cba
00000030: f094 91bb 9f08 34bb 3ca2 84b7 577d c13a
00000040: 12a7 e63a 61d9 6a3a 3c90 8839 5882 27bb
00000050: 55e1 893a dc37 8ebb d1d9 9c39 fa68 03ba
00000060: 536b d53b 5acc bfbb db47 1339 691b aa39
00000070: fd92 b639 5ffc 5dbc 373e b439 8566 d9bb
00000080: 020d 88bb 881d 8239 6a6f 63b9 d105 833a
00000090: fde4 d7b8 2e3a a63a 2ae3 1c3a 5ea4 1b3a
000000a0: 8605 54bb dfe6 c5ba 6ef8 853a 66c2 163b
000000b0: f981 31bb 0fd5 6abb e90e aeb8 b106 50bb
000000c0: b7ce a6bb 81ab 30bb d339 31ba f2f3 c3bb
000000d0: ea1e 79ba cb17 95bb 16a0 1438 3c42 d7b8
000000e0: f725 ac39 d6bf 02ba c718 8cbb 9262 ef3a
000000f0: 8613 183b c889 b2bb 34c2 4bbb 02c8 acbb
00000100: 7309 ef39 e910 3cba 9016 20b9 a4fb ce3a
00000110: 7ca9 803a a844 2abb 1436 1d3a a142 c5b9
00000120: 2a3a bfb8 b25a ce3a 1cc7 d13a 79b9 5138
00000130: 7f37 a9bb cee2 3a3a afbf 143a 8c38 7abb
00000140: 8a3a 49b9 b886 40bb e0c8 4fbb 308c 90b9
00000150: 8241 13ba 37e1 6039 643c d939 f966 033b
00000160: 14d0 8eb9 00bf a4bb ec89 a6bb eca6 35bb
00000170: 573e 463a 9e19 aeba 7b93 93b6 c6e4 42ba
00000180: 993b 9238 f8dd 5abb 429c 2fbb 9a0e 96bb
00000190: 5413 8c3a c4d1 18bb b27e e4bb 49a3 38ba
000001a0: d450 1a39 603a 923a 24f2 9138 2404 c9b9
000001b0: 0641 673a c233 b7bb ce97 8939 3ece 4a3b
000001c0: e440 3d39 12e7 5339 5885 f0b9 193a 4339
000001d0: fb3c ce3a de12 48b8 f5bd cbbb 4deb 1db9
000001e0: 3eff 303a 1291 42ba fc9e 9bbb 1ec5 063a
000001f0: 0dfc 27ba e010 b6bb a517 4a3a 58f6 6139
00000200: 2d75 a4b9 dfd7 c7ba 5bc9 7e3a 9c6d d3b8
00000210: c835 a9ba 5a60 bcbb e7f5 9abb 51e3 f3ba
00000220: 1bda 9d3b 498c e3ba 1c51 0eb8 4085 a83a
00000230: e792 8e38 d1c5 39b9 b1f1 963a bae8 453a
00000240: cfb2 bf3a ad47 e6ba 2fe4 fbba 8c4d b8bb
00000250: 9342 8038 7752 293a 9ee3 ceb9 ae59 b4bb
00000260: e6c0 1db9 3bed 8a3a 63bb 96bb 902a a63a
00000270: e302 dc3a 89e3 2f3b 2941 18bb e350 36bb
00000280: 09c9 0d39 2c7b 7b3b 1dd9 e438 e22d 71bb
00000290: 1777 1a3b 9bf2 adbb 226d cbbb 87e9 acba
000002a0: 6857 9dbb 02ae cc39 8cdd 15bb a444 f9bb
000002b0: 11a2 36bb 1222 ad39 ab0a 74bb 149a de39
000002c0: c55e 92b9 8b1e bdba ca00 763b f6ba 423a
000002d0: 4ef1 7ab9 c96c 9ebb 99c4 b93a 9b69 4dba
000002e0: d0f9 8a38 9fc4 7d3b 1eb7 e9b9 be8d 43bb
000002f0: af51 0939 2798 cb3a e8c1 883a 0875 793b
00000300: a3f8 553a 876a d0bb 03e0 133b 95f5 7d39
00000310: f7c7 2a39 a1ee 17b9 839a 93bb 77f8 18bb
00000320: 092f 8aba 5f4d 19ba 73e6 24ba 7d18 6ab9
00000330: d814 02bc be93 5dba 7e78 903a 44d1 03bb
00000340: 57a5 8f3a c088 843a d26e 8ab9 1f34 a9ba
00000350: d99f 6538 e353 303a 88cc c6ba f609 8339
00000360: fe29 cc3a 3d50 32bb 083a d4bb 41d5 1ab9
00000370: 626b 6cbb a681 1aba f4ed a9ba 04c6 c538
00000380: a0e8 03bb 830c 5b3a 2717 bbbb cf08 a43a
00000390: 208e 0ab9 a057 c9bb cb66 05b9 0a8c a5ba
000003a0: a1b7 3dbb acfe 02ba 5cbd 95bb dd54 97bb
000003b0: f141 aabb afba c9bb 3018 1fbb d090 033a
000003c0: 74ab 15ba 8261 55bb 38e5 9d3a bce1 3f39
000003d0: ab95 0f3a ff51 9fbb 1408 013a 80ef b9b9
000003e0: d933 dcb9 872a 64ba 9691 6b3b ba47 36bb
000003f0: 3390 07bb 7d6a c839 0589 d03a 590f 82b9

bias f4 [3]
-0.0071943942 0.013682558 -0.013251423
00000000: f4be ebbb cf2c 603c 7f1c 59bc
