nudge/models/getout/logic/beam_search_top1_save.pth (torch, 12251 bytes, 4 tensors)

actor.im.W f4 [5, 5]
2.8460243 0.06428693 0.65075153 1.6410179 1.5363619 -0.71352947 -0.2309711 -0.31110594
0.2711324 0.4275564 0.67229015 0.72026485 0.6391513 1.0644702 1.3073429 0.99073285
0.59024286 0.5281636 1.0689015 -0.09926104 -1.6237521 0.996158 0.88232976 0.24135414
2.134094
00000000: 4325 3640 dea8 833d a797 263f e00c d23f
00000010: 82a7 c43f dea9 36bf b083 6cbe 4749 9fbe
00000020: ded1 8a3e ace8 da3e 351b 2c3f 4763 383f
00000030: 6b9f 233f 8f40 883f 0357 a73f aba0 7d3f
00000040: 281a 173f bb35 073f c4d1 883f 5f49 cbbd
00000050: 1cd7 cfbf 3604 7f3f 5de0 613f 8a25 773e
00000060: ff94 0840

critic.mlp.0.weight f4 [40, 60]
-0.0009665443 0.06925457 -0.11604241 -0.104796804 -0.059510846 0.034618966 -0.012345348 0.043749616
0.015775539 0.111260496 0.18310936 -0.025376482 -0.12333496 -0.085500255 -0.053217772 0.0047823046
0.051037554 0.077462606 -0.087521814 -0.05621801 0.046891127 0.10720262 -0.026568688 0.096606635
-0.020808682 0.013660542 0.11689647 -0.11976173 -0.081273 -0.03268349 -0.050322957 0.11154202
-0.08367963 -0.069216296 -0.10408458 -0.13069674 0.10964337 0.11097363 0.057606544 0.06257096
0.0067895413 -0.06618716 0.012054426 -0.11880416 -0.10307016 -0.066554636 0.08145373 0.07569374
-0.057254963 -0.004658216 0.08256693 0.18714906 0.09956998 0.07624692 0.086559415 -0.07601406
0.02405691 -0.10009151 -0.08947703 -0.06669065 0.05841402 0.051918685 -0.07647238 0.03900186
0.07087198 -0.016294591 0.004929216 0.029912949 0.08009027 0.123960525 -0.09948707 -0.047311038
0.05073736 0.106965266 0.11234328 0.11391177 0.025692668 -0.11226264 0.01187618 -0.0807653
-0.12031476 0.114703886 0.098162025 -0.1287803 0.024163809 -0.021748094 -0.021244753 -0.059096158
0.049645986 -0.07646605 0.047326736 0.06528664 0.09241862 0.04827172 -0.12777427 -0.08374641
0.06446129 0.027020687 -0.10070841 -0.074337974 0.12145021 0.086989515 -0.056290604 -0.032492366
-0.12297989 -0.0023204512 -0.09721949 -0.09958172 -0.0071133287 0.019383643 -0.052870132 0.07660472
-0.07856206 0.11714097 0.08847183 -0.108867355 -0.032130826 0.0058253054 0.01883575 0.030619066
0.05066227 0.0077330777 -0.06299133 0.061088435 -0.1238385 -0.0765181 -0.032317445 -0.06288607
-0.045163292 -0.105812706 -0.027461408 0.027595839 -0.08410387 -0.0066253007 0.092415944 -0.013271455
0.0035879596 -0.011137268 0.026127322 0.08208652 0.12228896 0.08198536 0.12256876 -0.009336685
-0.11597281 -0.061203107 0.08790448 -0.00083688484 -0.06416841 -0.098930426 -0.12081798 -0.10896099
-0.026186112 0.07079891 0.06979646 -0.12450762 0.08052991 -0.101021536 -0.02729295 -0.052346293
-0.024866525 -0.025347734 -0.11584738 -0.11146935 -0.020201413 0.0016695374 -0.058646634 0.048631657
-0.116197035 -0.0087125655 0.11353256 -0.05265863 0.1165772 0.04675385 -0.1165072 0.08168087
-0.014897362 -0.057630874 0.1032348 -0.10432465 0.013853007 -0.027029384 0.0064461404 -0.049707994
-0.023712607 0.045592625 -0.116790704 -0.037499025 -0.26462042 -0.2231924 0.07816582 0.08833305
-0.09106395 0.0057578213 -0.0910066 -0.0710672 -0.075226955 0.044119094 -0.07693206 -0.0028165893
0.0054309713 0.083220474 -0.09758886 -0.088628344 -0.07496308 0.090361014 -0.04640673 0.10889392
0.046683334 0.016347349 -0.00096101937 -0.025520578 0.016197635 -0.115224786 -0.040087987 -0.06927349
-0.5440565 -0.06766508 0.10424686 -0.10477023 -0.009270139 0.12771016 -0.03910995 0.09465239
-0.19762404 0.06395301 -0.09195505 -0.036646716 -0.04331497 -0.019117998 0.0014121267 0.21126485
-0.17132705 0.22041608 0.078971736 -0.081618465 0.05790163 -0.09125989 -0.05471559 0.037971076
0.042627614 0.09685402 -0.04154639 0.00021941948 0.06647616 -0.12485106 0.09334923 -0.21072641
0.05497538 -0.2543456 0.14123523 0.017063208 0.10675475 -0.03773829 -0.076645575 -0.047745988
00000000: b15f 7dba 57d5 8d3d a5a7 edbd b59f d6bd
00000010: a5c1 73bd 9ecc 0d3d 2444 4abc cc32 333d
00000020: b43b 813c 8bdc e33d 0581 3b3e 57e2 cfbc
00000030: 0a97 fcbd c21a afbd e1fa 59bd e1b4 9c3b
00000040: c10c 513d b7a4 9e3d a33e b3bd db44 66bd
00000050: e910 403d 0c8d db3d 94a6 d9bc b3d9 c53d
00000060: f876 aabc 77d0 5f3c 6b67 ef3d a345 f5bd
00000070: 7572 a6bd 20df 05bd 721f 4ebd 2570 e43d
00000080: 3a60 abbd 46c1 8dbd 4c2a d5bd 5ed5 05be
00000090: b48c e03d 2446 e33d d7f4 6b3d 3425 803d
000000a0: cd7a de3b 228d 87bd ed7f 453c 984f f3bd
000000b0: 7316 d3bd cc4d 88bd 37d1 a63d 5205 9b3d
000000c0: 2e84 6abd f3a3 98bb da18 a93d 01a4 3f3e
000000d0: 58eb cb3d 5827 9c3d 1046 b13d 42ad 9bbd
000000e0: ff12 c53c c7fc ccbd bc3f b7bd 1c95 88bd
000000f0: 8a43 6f3d b0a8 543d 8d9d 9cbd 6ac0 1f3d
00000100: 5425 913d 3c7c 85bc 4385 a13b 000c f53c
00000110: 5e06 a43d 04df fd3d e1bf cbbd 38c9 41bd
00000120: fad1 4f3d 9b10 db3d 3c14 e63d 934a e93d
00000130: 6e79 d23c f4e9 e5bd 4f94 423c 4768 a5bd
00000140: 9667 f6bd dfe9 ea3d 2c09 c93d fcde 03be
00000150: 2ef3 c53c 0f29 b2bc 7a09 aebc d00e 72bd
00000160: 9759 4b3d 3c9a 9cbd aed9 413d 00b5 853d
00000170: f945 bd3d 91b8 453d 42d7 02be 3d83 abbd
00000180: 4804 843d 7d5a dd3c 3640 cebd 823e 98bd
00000190: e3ba f83d 8f27 b23d fa90 66bd b716 05bd
000001a0: e1dc fbbd b612 18bb 031b c7bd 80f1 cbbd
000001b0: ed16 e9bb 72ca 9e3c 5a8e 58bd efe2 9c3d
000001c0: 25e5 a0bd 9be7 ef3d b830 b53d d9f5 debd
000001d0: 9d9b 03bd 34e2 be3b 6e4d 9a3c d6d4 fa3c
000001e0: 3e83 4f3d c265 fd3b 9901 81bd de37 7a3d
000001f0: 0a9f fdbd 86b5 9cbd 4c5f 04bd 69ca 80bd
00000200: 25fd 38bd 55b4 d8bd bff6 e0bc ab10 e23c
00000210: a63e acbd 0d19 d9bb 9244 bd3d 8470 59bc
00000220: f923 6b3b 1679 36bc f708 d63c fa1c a83d
00000230: a272 fa3d f1e7 a73d 5405 fb3d e5f8 18bc
00000240: 2783 edbd 1cb0 7abd 4407 b43d 6462 5bba
00000250: ba6a 83bd 099c cabd 6b6f f7bd f126 dfbd
00000260: 4284 d6bc 05ff 903d 72f1 8e3d dafd febd
00000270: deec a43d 61e4 cebd 7795 dfbc 1169 56bd
00000280: e2b4 cbbc 0da6 cfbc 6441 edbd 0b4a e4bd
00000290: 6f7d a5bc 61d4 da3a 7437 70bd fd31 473d
000002a0: b6f8 edbd 26bf 0ebc c283 e83d 93b0 57bd
000002b0: 07c0 ee3d f780 3f3d 549b eebd 4d48 a73d
000002c0: 1114 74bc 5a0e 6cbd c46c d33d 29a8 d5bd
000002d0: b9f7 623c ba6c ddbc 253a d33b 9c9a 4bbd
000002e0: f140 c2bc 55bf 3a3d f72f efbd 9498 19bd
000002f0: 547c 87be 8c8c 64be 6715 a03d f5e7 b43d
00000300: bc7f babd 1bac bc3b ab61 babd ae8b 91bd
00000310: 9710 9abd 39b6 343d 8e8e 9dbd 8796 38bb
00000320: 4af6 b13b 7f6f aa3d abdc c7bd c782 b5bd
00000330: 3e86 99bd 320f b93d fc14 3ebd c703 df3d
00000340: 0637 3f3d e0ea 853c ebec 7bba 8810 d1bc
00000350: e7b0 843c f9fa ebbd 4d33 24bd 42df 8dbd
00000360: 4947 0bbf fd93 8abd 617f d53d c691 d6bd
00000370: c8e1 17bc 74c6 023e c131 20bd 1dd9 c13d
00000380: f55d 4abe ccf9 823d ee52 bcbd de1a 16bd
00000390: 0a6b 31bd 599d 9cbc 1c17 b93a d055 583e
000003a0: 5c70 2fbe c1b4 613e efbb a13d 9527 a7bd
000003b0: 422a 6d3d 77e6 babd 741d 60bd 8f87 1b3d
000003c0: 4b9a 2e3d 675b c63d 8c2c 2abd f813 6639
000003d0: a724 883d eab1 ffbd e22d bf3d aac8 57be
000003e0: dd2d 613d 9639 82be f89f 103e 24c8 8b3c
000003f0: 3ca2 da3d 7793 1abd 5bf8 9cbd 4c91 43bd

critic.mlp.0.bias f4 [40]
0.11496278 0.0005390296 -0.0776433 -0.011455511 -0.026878584 0.02786672 -0.07471123 -0.13397664
-0.077522725 -0.014175502 -0.10573598 0.099016 0.011484967 -0.049423374 0.074567445 -0.13596456
-0.06974237 0.0007769376 -0.05935071 0.060658917 0.03186532 -0.22298656 -0.13353482 -0.02489395
0.0432203 -0.066524826 -0.12332511 -0.14413866 0.03149614 0.05063895 0.033046477 0.06242827
-0.056205135 0.00824884 0.155225 0.055266134 0.103967786 -0.10360032 -0.046312366 -0.014278567
00000000: 9b71 eb3d aa4d 0d3a 7303 9fbd e5af 3bbc
00000010: 7a30 dcbc bf48 e43c 3402 99bd 2c31 09be
00000020: 3cc4 9ebd 5d40 68bc 1b8c d8bd e7c8 ca3d
00000030: 712b 3c3c 2a70 4abd d1b6 983d 4b3a 0bbe
00000040: 16d5 8ebd 66ab 4b3a bb19 73bd 7c75 783d
00000050: 3685 023d 9756 64be 5abd 08be 66ee cbbc
00000060: c507 313d 2b3e 88bd e091 fcbd 1699 13be
00000070: 1902 013d ca6a 4f3d be5b 073d c9b4 7f3d
00000080: 5b37 66bd 2526 073c 4df3 1e3e be5e 623d
00000090: 10ed d43d 682c d4bd 09b2 3dbd a7f0 69bc

critic.mlp.2.weight f4 [1, 40]
0.01875155 0.064001136 -0.014093659 -0.20886314 -0.22337528 0.08390109 -0.3206554 -0.35095903
-0.28912205 -0.078386515 0.029028978 0.20424178 -0.49047598 -0.058197334 0.08235352 -0.09066855
-0.3564488 -0.019551525 0.090750396 0.031136185 -0.06496492 -0.036700904 0.09353102 -0.1083743
0.08925553 -0.005115202 0.34225985 -0.03307207 -0.15715693 0.25747666 0.08304266 -0.16162062
-0.13691652 -0.03766807 0.109953 -0.1967926 0.13916887 -0.1725278 -0.2089683 0.069552325
00000000: da9c 993c 0713 833d 17e9 66bc 38e0 55be
00000010: 7dbc 64be 56d4 ab3d f22c a4be e7b0 b3be
00000020: ce07 94be 1c89 a0bd 2ece ed3c c224 513e
00000030: ab1f fbbe 5460 6ebd f6a8 a83d 6fb0 b9bd
00000040: 7580 b6be 852a a0bc 58db b93d 5011 ff3c
00000050: 540c 85bd b053 16bd 318d bf3d 58f3 ddbd
00000060: 9acb b63d 6d9d a7bb af3c af3e 9476 07bd
00000070: bfed 20be fbd3 833e 4512 aa3d e07f 25be
00000080: d833 0cbe d649 1abd 0a2f e13d 0084 49be
00000090: 4982 0e3e 21ab 30be c9fb 55be 7371 8e3d
