results/models/getout/logic/getout_bs_top10.pth (torch, 13147 bytes, 4 tensors)

actor.im.W f4 [5, 50]
2.6577585 1.2938179 1.6377317 0.80795 1.509856 -1.3349845 -0.48277014 -1.1576824
1.4033203 -1.0186466 1.5438797 2.9009695 2.2077198 1.480788 2.043439 1.8209715
2.4825351 0.78325725 1.8003618 0.11763276 -1.649062 2.5725434 1.8658371 0.62935144
1.0613601 -0.38495952 1.1153164 -1.3954958 0.8244512 0.3897909 -1.6232008 1.8823054
0.6161689 -3.7811196 1.2648535 1.6845169 1.4730798 1.4451702 1.1407732 -0.06347773
-4.180416 -2.6051588 -2.891204 2.6375802 0.7924362 0.8640254 -4.379751 -0.53394854
-2.9247983 1.9731324 -0.80113083 0.4812436 -0.47143844 -1.2979797 -0.41136634 0.045146238
-0.050850987 -0.23754518 -0.51929986 -0.47483605 -0.5471346 -0.23514545 -0.6887411 -1.6086231
0.32127485 -0.27891383 -1.47137 0.6216298 -0.7844316 0.21117233 0.8921447 0.1405914
1.3477203 -1.0957617 0.22484401 -0.43478632 -0.6207773 -0.7563436 -0.36674547 -0.22328582
-2.17705 3.698136 3.262962 -2.5709207 1.6189365 1.8231622 0.78091395 -0.5777855
-1.1434916 0.7270297 -0.30957034 0.5298998 -0.4842602 0.21631311 0.5704145 0.9206246
0.14719854 0.67688054 -0.9820502 -0.5840336 0.82381624 -2.406891 -1.8986572 -0.6812545
-2.4076047 0.7090164 -2.0641165 -2.0209403 1.3164116 -0.12857793 1.9611576 3.8423436
2.074953 1.9909319 -1.8382701 -2.1989052 1.5605136 0.45824656 -2.3872275 1.1757082
-1.1966842 -2.4957907 -0.8027796 0.26994556 -2.2904098 -1.6185218 -1.9039938 0.25318903
-0.8406727 -1.0344806 -2.326713 -1.0176531 -2.2310586 -1.5296253 -2.1662476 -0.87592685
-0.97044927 -1.7552619 -1.1563354 -2.639628 1.4972507 1.6819149 1.4091848 1.2757798
2.6250806 1.1864065 -0.89028406 -1.3426964 -3.7749665 -2.8934188 0.60794353 2.3895416
-0.07967953 -1.2699065 0.3497162 -0.21531777 0.68313867 -1.4777508 -0.33365676 -0.87292117
0.18678656 2.7585757 1.7784717 0.75662947 -0.37660074 1.3590423 -0.120753065 -0.6653565
1.7027118 0.87483966 2.2874818 -2.1123216 1.9523548 -0.26562637 -0.12312467 0.5199841
-0.965029 0.22159182 -0.6842071 -1.8499626 -1.2158103 -0.5615043 0.16987173 -3.0940228
1.4675622 -0.7906199 -1.136223 0.020312548 0.07193946 1.506356 -0.7309836 -0.33556163
-0.641894 -1.87872 1.3667574 0.67192423 1.5734375 -0.6220172 0.7176958 0.45820248
2.8401415 2.969958 2.6768208 -1.9420629 -2.3992178 -4.654552 -2.621499 -4.2872734
1.8240323 -1.2337674 -0.02031596 -0.25235143 0.21674754 -1.4151707 -1.5002989 -0.85330814
-0.5656613 -0.16950372 1.8160408 -0.4714892 -3.2415988 0.7235181 -0.79805815 1.561334
-2.4955032 -0.33703938 -0.2437969 -0.72279906 -1.4427711 0.7090495 -2.805889 -1.0779059
-1.1274456 -0.98069465 -1.7067095 0.2152375 0.52647454 -3.0375402 -0.13969624 -0.28641945
-2.8135774 -1.027556 -0.7631792 -2.5056317 -0.8768665 -2.243686 1.4953938 0.22401036
-1.6688402 -2.3454158
00000000: b718 2a40 d39b a53f 31a1 d13f d0d5 4e3f
00000010: f642 c13f c6e0 aabf a62d f7be f02e 94bf
00000020: 00a0 b33f 0363 82bf da9d c53f 7ca9 3940
00000030: 484b 0d40 768a bd3f b4c7 0240 9815 e93f
00000040: dbe1 1e40 8c83 483f 4172 e63f 72e9 f03d
00000050: 7714 d3bf 8da4 2440 c0d3 ee3f 2d1d 213f
00000060: a6da 873f 6a19 c5be b0c2 8e3f 9b9f b2bf
00000070: 3c0f 533f ac92 c73e 0bc5 cfbf 62ef f03f
00000080: 3fbd 1d3f ddfd 71c0 b8e6 a13f 409e d73f
00000090: e18d bc3f 56fb b83f db04 923f 9d00 82bd
000000a0: f8c5 85c0 ecba 26c0 7d09 39c0 1dce 2840
000000b0: 19dd 4a3f c530 5d3f ec26 8cc0 dab0 08bf
000000c0: e52f 3bc0 9a8f fc3f e916 4dbf 9065 f63e
000000d0: 6160 f1be 3324 a6bf 9c9e d2be 43eb 383d
000000e0: 2049 50bd 0b3f 73be d6f0 04bf b61d f3be
000000f0: 0311 0cbf f8c9 70be 5651 30bf 5de7 cdbf
00000100: 237e a43e cbcd 8ebe da55 bcbf 2123 1f3f
00000110: 82d0 48bf 8f3d 583e 9863 643f 31f7 0f3e
00000120: 1982 ac3f eb41 8cbf 823d 663e 509c debe
00000130: 43eb 1ebf bc9f 41bf 10c6 bbbe 0aa5 64be
00000140: ca54 0bc0 43ae 6c40 5fd4 5040 f789 24c0
00000150: 5039 cf3f 615d e93f fae9 473f c0e9 13bf
00000160: ef5d 92bf 9e1e 3a3f 0180 9ebe 83a7 073f
00000170: f4f0 f7be 2f81 5d3e af06 123f 0eae 6b3f
00000180: 37bb 163e 0b48 2d3f a467 7bbf 3a83 15bf
00000190: 9fe5 523f 810a 1ac0 3307 f3bf b266 2ebf
000001a0: 3216 1ac0 1982 353f 7c1a 04c0 1657 01c0
000001b0: 2d80 a83f efa9 03be 3607 fb3f f5e8 7540
000001c0: 08cc 0440 dbd6 fe3f 6f4c ebbf ddba 0cc0
000001d0: e9be c73f 4b9f ea3e 56c8 18c0 9b7d 963f
000001e0: f32c 99bf 09bb 1fc0 f782 4dbf 4e36 8a3e
000001f0: 1396 12c0 b92b cfbf 12b6 f3bf fea1 813e
00000200: 5336 57bf dc69 84bf dee8 14c0 7542 82bf
00000210: aac9 0ec0 c3ca c3bf cda3 0ac0 be3c 60bf
00000220: 5d6f 78bf 6cac e0bf cc02 94bf aaef 28c0
00000230: e9a5 bf3f fd48 d73f 2b60 b43f c14c a33f
00000240: 5201 2840 2bdc 973f a8e9 63bf 7add abbf
00000250: 0d99 71c0 c62d 39c0 30a2 1b3f 40ee 1840
00000260: 052f a3bd 4c8c a2bf 000e b33e 437c 5cbe
00000270: 2de2 2e3f f026 bdbf 0fd5 aabe c377 5fbf
00000280: fa44 3f3e 818c 3040 f6a4 e33f 78b2 413f
00000290: d0d1 c0be 19f5 ad3f 624d f7bd ce54 2abf
000002a0: 76f2 d93f 7ef5 5f3f 1a66 1240 4730 07c0
000002b0: c3e6 f93f 2e00 88be c928 fcbd ae1d 053f
000002c0: 240c 77bf f7e8 623e 3228 2fbf 93cb ecbf
000002d0: ac9f 9bbf bfbe 0fbf dbf2 2d3e 7804 46c0
000002e0: 14d9 bb3f 1166 4abf c16f 91bf 8066 a63c
000002f0: ff54 933d 46d0 c03f be21 3bbf bcce abbe
00000300: 2a53 24bf e679 f0bf e8f1 ae3f 3a03 2c3f
00000310: 6666 c93f 853c 1fbf e9ba 373f 8499 ea3e
00000320: e1c4 3540 cb13 3e40 0851 2b40 8495 f8bf
00000330: c98c 19c0 17f2 94c0 a4c6 27c0 5831 89c0
00000340: e479 e93f 17ec 9dbf a86d a6bc 3534 81be
00000350: 11f3 5d3e 5024 b5bf cb09 c0bf 6772 5abf
00000360: 2ecf 10bf 6292 2dbe 0674 e83f 0867 f1be
00000370: 5b76 4fc0 7b38 393f 8a4d 4cbf cbd9 c73f
00000380: 53b6 1fc0 6d90 acbe e5a5 79be 5c09 39bf
00000390: b9ac b8bf 4584 353f af93 33c0 d2f8 89bf
000003a0: 2350 90bf ce0e 7bbf 7575 dabf 3867 5c3e
000003b0: 09c7 063f 0f67 42c0 880c 0fbe 92a5 92be
000003c0: a711 34c0 f486 83bf b65f 43bf 455c 20c0
000003d0: 537a 60bf 8d98 0fc0 1069 bf3f f962 653e
000003e0: 8e9c d5bf 4b1b 16c0

critic.mlp.0.weight f4 [40, 60]
-0.0009665443 0.06925457 -0.120111674 -0.10887457 -0.06358048 0.034618966 -0.016423244 0.08870283
-0.023068197 -0.010533913 -0.0021491216 -0.025376482 -0.12333496 -0.085500255 -0.053217772 0.0047823046
0.051037554 0.077462606 -0.087521814 -0.05621801 0.046891127 0.10720262 -0.026568688 0.096606635
-0.020808682 0.013660542 0.11689647 -0.11976173 -0.081273 -0.03268349 -0.050322957 0.11154202
-0.08367963 -0.07328669 -0.11320115 -0.13477004 -0.10917389 0.11097363 0.057606544 0.06257096
0.0067895413 -0.06618716 0.007983835 -0.13634063 -0.10714355 -0.066554636 0.08145373 0.07569374
-0.057254963 -0.004658216 0.08256693 0.11448455 0.03732528 0.0035795518 0.086559415 -0.07601406
0.02405691 -0.10009151 -0.08947703 -0.06669065 0.05841402 0.051918685 -0.080791056 0.03469402
0.06655342 -0.016294591 0.0006213707 0.025593504 0.07577389 0.119720966 -0.09523615 -0.047311038
0.05073736 0.106965266 0.11234328 0.11391177 0.025692668 -0.11226264 0.01187618 -0.0807653
-0.12031476 0.114703886 0.098162025 -0.1287803 0.024163809 -0.021748094 -0.021244753 -0.059096158
0.049645986 -0.07646605 0.047326736 0.06528664 0.09241862 0.0439542 -0.13208973 -0.08806027
0.060193487 0.027020687 -0.10070841 -0.074337974 0.12145021 0.086989515 -0.060608532 -0.036811206
-0.1272937 -0.0023204512 -0.09721949 -0.09958172 -0.0071133287 0.019383643 -0.052870132 0.072286524
-0.0828801 0.112827115 0.08847183 -0.108867355 -0.032130826 0.0058253054 0.01883575 0.030619066
0.05066227 0.0077330777 -0.012114309 0.111948796 -0.07296114 -0.0765181 0.018542254 -0.16212158
-0.03988599 0.09450589 0.47200617 0.027595839 -0.08410387 -0.0066253007 0.092415944 -0.013271455
0.0035879596 -0.011137268 0.026127322 0.08208652 0.12228896 0.08198536 0.12256876 -0.009336685
-0.11597281 -0.061203107 0.08790448 -0.00083688484 -0.06416841 -0.098930426 -0.12081798 -0.10896099
-0.026186112 0.12167388 0.19499959 -0.07363789 -0.12484634 -0.101021536 -0.02729295 -0.052346293
-0.024866525 -0.025347734 -0.064971246 -0.07854422 0.030667866 0.0016695374 -0.058646634 0.048631657
-0.116197035 -0.0087125655 0.11353256 -0.08385183 0.24156953 0.01555374 -0.1165072 0.08168087
-0.014897362 -0.057630874 0.1032348 -0.10432465 0.013853007 -0.027029384 0.03210892 -0.024046797
0.0019502918 0.045592625 -0.091129325 -0.04744018 -0.16482922 0.044942014 0.36662433 0.08833305
-0.09106395 0.0057578213 -0.0910066 -0.0710672 -0.075226955 0.044119094 -0.07693206 -0.0028165893
0.0054309713 0.083220474 -0.09758886 -0.088628344 -0.07496308 0.090361014 -0.04640673 0.10889392
0.046683334 0.016347349 -0.00096101937 -0.025520578 0.016197635 -0.08956188 -0.06795817 -0.043611106
-0.005588375 -0.06766508 0.10424686 -0.10477023 -0.009270139 0.12771016 -0.013447332 0.027343133
-0.17196177 0.06395301 -0.09195505 -0.036646716 -0.04331497 -0.019117998 0.0014121267 0.13014786
-0.07632831 0.13929841 0.078971736 -0.081618465 0.05790163 -0.09125989 -0.05471559 0.037971076
0.042627614 0.09685402 -0.061511792 -0.019746043 0.046510816 -0.12485106 0.07338369 -0.1542639
0.13012093 -0.24828868 0.16067311 0.017063208 0.10675475 -0.03773829 -0.076645575 -0.047745988
00000000: b15f 7dba 57d5 8d3d 1cfd f5bd a1f9 debd
00000010: 7c36 82bd 9ecc 0d3d 0a8a 86bc d4a9 b53d
00000020: 84f9 bcbc 6f96 2cbc 47d8 0cbb 57e2 cfbc
00000030: 0a97 fcbd c21a afbd e1fa 59bd e1b4 9c3b
00000040: c10c 513d b7a4 9e3d a33e b3bd db44 66bd
00000050: e910 403d 0c8d db3d 94a6 d9bc b3d9 c53d
00000060: f876 aabc 77d0 5f3c 6b67 ef3d a345 f5bd
00000070: 7572 a6bd 20df 05bd 721f 4ebd 2570 e43d
00000080: 3a60 abbd 5517 96bd 01d6 e7bd 2801 0abe
00000090: 8f96 dfbd 2446 e33d d7f4 6b3d 3425 803d
000000a0: cd7a de3b 228d 87bd a2ce 023c e19c 0bbe
000000b0: 146e dbbd cc4d 88bd 37d1 a63d 5205 9b3d
000000c0: 2e84 6abd f3a3 98bb da18 a93d e076 ea3d
000000d0: 65e2 183d ea96 6a3b 1046 b13d 42ad 9bbd
000000e0: ff12 c53c c7fc ccbd bc3f b7bd 1c95 88bd
000000f0: 8a43 6f3d b0a8 543d c875 a5bd 511b 0e3d
00000100: 294d 883d 3c7c 85bc 7be3 223a 78a9 d13c
00000110: 572f 9b3d 4430 f53d 2c0b c3bd 38c9 41bd
00000120: fad1 4f3d 9b10 db3d 3c14 e63d 934a e93d
00000130: 6e79 d23c f4e9 e5bd 4f94 423c 4768 a5bd
00000140: 9667 f6bd dfe9 ea3d 2c09 c93d fcde 03be
00000150: 2ef3 c53c 0f29 b2bc 7a09 aebc d00e 72bd
00000160: 9759 4b3d 3c9a 9cbd aed9 413d 00b5 853d
00000170: f945 bd3d 5209 343d 8842 07be f158 b4bd
00000180: 728d 763d 7d5a dd3c 3640 cebd 823e 98bd
00000190: e3ba f83d 8f27 b23d a740 78bd 59c7 16bd
000001a0: 4859 02be b612 18bb 031b c7bd 80f1 cbbd
000001b0: ed16 e9bb 72ca 9e3c 5a8e 58bd f50a 943d
000001c0: 0bbd a9bd e711 e73d b830 b53d d9f5 debd
000001d0: 9d9b 03bd 34e2 be3b 6e4d 9a3c d6d4 fa3c
000001e0: 3e83 4f3d c265 fd3b 187b 46bc 6945 e53d
000001f0: a66c 95bd 86b5 9cbd ede5 973c 3303 26be
00000200: 7e5f 23bd 4e8c c13d cbaa f13e ab10 e23c
00000210: a63e acbd 0d19 d9bb 9244 bd3d 8470 59bc
00000220: f923 6b3b 1679 36bc f708 d63c fa1c a83d
00000230: a272 fa3d f1e7 a73d 5405 fb3d e5f8 18bc
00000240: 2783 edbd 1cb0 7abd 4407 b43d 6462 5bba
00000250: ba6a 83bd 099c cabd 6b6f f7bd f126 dfbd
00000260: 4284 d6bc 2830 f93d f9ad 473e 76cf 96bd
00000270: 70af ffbd 61e4 cebd 7795 dfbc 1169 56bd
00000280: e2b4 cbbc 0da6 cfbc a50f 85bd cbdb a0bd
00000290: 2d3b fb3c 61d4 da3a 7437 70bd fd31 473d
000002a0: b6f8 edbd 26bf 0ebc c283 e83d 82ba abbd
000002b0: 015e 773e 1dd5 7e3c 549b eebd 4d48 a73d
000002c0: 1114 74bc 5a0e 6cbd c46c d33d 29a8 d5bd
000002d0: b9f7 623c ba6c ddbc a584 033d cafd c4bc
000002e0: efa0 ff3a 55bf 3a3d 03a2 babd a250 42bd
000002f0: fec8 28be 1e15 383d 2fb6 bb3e f5e7 b43d
00000300: bc7f babd 1bac bc3b ab61 babd ae8b 91bd
00000310: 9710 9abd 39b6 343d 8e8e 9dbd 8796 38bb
00000320: 4af6 b13b 7f6f aa3d abdc c7bd c782 b5bd
00000330: 3e86 99bd 320f b93d fc14 3ebd c703 df3d
00000340: 0637 3f3d e0ea 853c ebec 7bba 8810 d1bc
00000350: e7b0 843c 386c b7bd a72d 8bbd 8fa1 32bd
00000360: b01e b7bb fd93 8abd 617f d53d c691 d6bd
00000370: c8e1 17bc 74c6 023e 3352 5cbc b5fe df3c
00000380: bf16 30be ccf9 823d ee52 bcbd de1a 16bd
00000390: 0a6b 31bd 599d 9cbc 1c17 b93a 7b45 053e
000003a0: 0452 9cbd 3ea4 0e3e efbb a13d 9527 a7bd
000003b0: 422a 6d3d 77e6 babd 741d 60bd 8f87 1b3d
000003c0: 4b9a 2e3d 675b c63d caf3 7bbd 74c2 a1bc
000003d0: 2082 3e3d eab1 ffbd 304a 963d 5bf7 1dbe
000003e0: 6c3e 053e 633f 7ebe 7e87 243e 24c8 8b3c
000003f0: 3ca2 da3d 7793 1abd 5bf8 9cbd 4c91 43bd

critic.mlp.0.bias f4 [40]
0.11088517 -0.0037688147 -0.026783755 0.01420556 -0.04684392 0.04718168 -0.09436419 -0.13613005
-0.05201702 -0.014175502 -0.110967614 0.14736237 0.0020641978 -0.049423374 0.0933581 -0.12987664
-0.071309105 0.009187953 -0.12965915 0.0425373 -0.020510953 -0.22198269 -0.13914922 0.032245778
0.07178501 -0.024655428 -0.1232954 -0.13927972 0.028176796 0.0028196913 0.033046477 -0.012035368
-0.013972763 0.02519514 0.17348161 0.09331512 0.10064048 -0.11228343 -0.035445694 -0.014278567
00000000: c417 e33d 38fe 76bb 9b69 dbbc 70be 683c
00000010: 69df 3fbd 9441 413d 0342 c1bd ad65 0bbe
00000020: cc0f 55bd 5d40 68bc fd42 e3bd 29e6 163e
00000030: 7e47 073b 2a70 4abd 8832 bf3d 62fe 04be
00000040: 820a 92bd 1189 163c 5ec5 04be 983b 2e3d
00000050: 9606 a8bc 6e4f 63be 227d 0ebe 2614 043d
00000060: 0504 933d 2efa c9bc 4c82 fcbd 589f 0ebe
00000070: 06d3 e63c 92ca 383b be5b 073d fe2f 45bc
00000080: 04ee 64bc 0a66 ce3c 2aa5 313e ff1b bf3d
00000090: 991c ce3d dbf4 e5bd 812f 11bd a7f0 69bc

critic.mlp.2.weight f4 [1, 40]
0.031859137 0.05973071 -0.14294472 -0.0453587 -0.3006788 0.070316024 -0.007729972 -0.03793233
-0.30445412 -0.078386515 0.029619604 0.25795525 -0.15596525 -0.058197334 0.10188234 -0.112839915
-0.43968806 -0.015491518 0.1203369 0.015329214 0.035880156 -0.03178927 0.08915203 -0.047700386
0.12986016 0.015147625 0.51691633 -0.0043839077 -0.17526789 0.2989029 0.08304266 -0.0008106642
-0.1774548 -0.14189464 0.12828095 -0.06520718 0.15329881 -0.118495636 -0.26572904 0.069552325
00000000: ba7e 023d 30a8 743d 1a60 12be 0bca 39bd
00000010: 92f2 99be d901 903d b44b fdbb ee5e 1bbd
00000020: 69e1 9bbe 1c89 a0bd d0a4 f23c b612 843e
00000030: 5bb5 1fbe 5460 6ebd b0a7 d03d 9d18 e7bd
00000040: cb1e e1be 23d0 7dbc 3173 f63d 6227 7b3c
00000050: 12f7 123d 7735 02bd 5795 b63d 7b61 43bd
00000060: 10fa 043e be2d 783c a154 043f e2a6 8fbb
00000070: 6d79 33be cd09 993e 4512 aa3d c182 54ba
00000080: b6b6 35be d44c 11be 155c 033e 588b 85bd
00000090: 5dfa 1c3e d7ad f2bd a30d 88be 7371 8e3d
