results/models/loot/logic/beam_search_40.pth (torch, 7195 bytes, 4 tensors)

actor.im.W f4 [8, 40]
000000 8a 5c a8 3e 1f 05 d9 bf f1 69 cf be 8f e5 b1 3f
       0.32883102 -1.6954688 -0.40510514 1.3898181
000010 7a 59 e8 3d 46 97 e5 bf b6 a3 6a be 49 f5 07 bf
       0.11345191 -1.793679 -0.22914013 -0.5310865
000020 28 d5 29 bf 03 26 45 be 80 b0 3e be db 1b e9 be
       -0.66340876 -0.19252782 -0.18622017 -0.45529065
000030 d8 d1 7b bf 47 35 0a 3e 51 22 99 bf 15 56 3d bf
       -0.9836707 0.13496886 -1.1963598 -0.73959476
000040 04 6d 0d bf e7 d6 42 bf 3e b0 a6 be da 0c bf bf
       -0.5524447 -0.76109165 -0.32556337 -1.4925797
000050 b3 40 6d c0 0f b7 45 3f 92 48 e8 3f bd a7 0c c0
       -3.707074 0.7723245 1.8147147 -2.197738
000060 4a df ae 40 a7 0d 33 c0 ee bf 33 bf 97 89 33 bf
       5.464757 -2.7977083 -0.70214736 -0.7013182
000070 e3 e0 ae 3e 55 70 33 3f b5 da d4 be 7d 91 d8 bd
       0.3415595 0.7009328 -0.4157311 -0.10574625
000080 1f b3 b4 bf f7 a3 25 c0 67 fc 5e bf 74 d8 0e bf
       -1.4117163 -2.5881326 -0.87103885 -0.5579903
000090 06 2c 61 3f 6c db 07 3f 1c 43 8d bf d0 11 60 bf
       0.879578 0.53069186 -1.1036105 -0.8752718
0000a0 f5 a3 8c bf 17 ad 43 bf a4 56 6f 3f 24 c0 55 40
       -1.0987536 -0.7643599 0.9349158 3.3398523
0000b0 52 1c 3c bf 43 98 aa bf ed ff 01 c0 50 07 ea 3c
       -0.73480713 -1.3327717 -2.0312455 0.02856794
0000c0 ef ae 0d c0 66 6a 8b bf e7 53 b0 bf ec ff 44 bf
       -2.213802 -1.0891845 -1.3775605 -0.76953006
0000d0 b3 d3 d9 bf 5a 53 ce bf 85 50 83 bf a2 3f 05 bd
       -1.701773 -1.6119187 -1.0258948 -0.032531388
0000e0 e8 c5 6f bf 3f 4b 86 be b3 e0 72 bf ae 58 2d bf
       -0.93661356 -0.26229283 -0.94874114 -0.6771344
0000f0 4d 4d d6 bf 62 3b 8e bf 63 18 c0 bf e1 88 28 c0
       -1.674234 -1.1111872 -1.5007442 -2.6333544
000100 91 b2 ce be 7b 2c 8a bf bc eb 0b c0 d5 15 06 bd
       -0.4037061 -1.0794824 -2.186263 -0.032735664
000110 5a 7a c7 bf 77 b1 0b bf e0 a3 a5 bd 38 e3 4f bf
       -1.5584214 -0.54567665 -0.08087897 -0.81206083
000120 3f f2 10 3e 69 67 f9 bf 58 48 1f be c8 fc 8e bf
       0.1415491 -1.9484683 -0.1555494 -1.1170893
000130 49 f9 a8 bf 0d 2a 67 bf 80 57 4a bf d8 65 e2 be
       -1.3201076 -0.9029854 -0.79039764 -0.44218326
000140 03 02 3b bf aa 6a 50 3f 56 b2 be 3e 38 c6 6c bf
       -0.73049945 0.81412756 0.37245435 -0.9248996
000150 8b 60 b9 3f 35 b6 b7 3f 2f 07 9e 3e 91 95 9a bf
       1.4482588 1.435248 0.30864856 -1.2076894
000160 57 52 86 40 42 d7 3a 40 20 92 c1 3e b3 03 9e 3f
       4.1975513 2.9193883 0.37806797 1.2344879
000170 96 c8 9c 3e aa 50 e0 3f 19 5b 1f 3f 3d 1f a4 3f
       0.30621785 1.7524617 0.6224838 1.2822033
000180 43 be 38 be d9 30 f8 3f 4d 68 3c 3f 3a 6a 81 3f
       -0.18041329 1.9389907 0.7359665 1.0110543
000190 50 be 56 3f 20 48 a1 bf 9d 73 b6 bf a0 bd 1c 3e
       0.83884144 -1.2600136 -1.4254032 0.15306711
0001a0 0c 8a 7e bf 18 6e 9d 3f 9b 79 c1 be 00 47 04 bf
       -0.9942939 1.2299223 -0.3778809 -0.5167084
0001b0 45 d3 b2 3f fa 05 f4 3f 85 22 c6 3f a1 6c 96 3f
       1.3970724 1.9064324 1.5479285 1.1751901
0001c0 0c 5d 1b bf 7c b3 e5 3f b9 63 96 3e 9b 34 ab 3f
       -0.60688853 1.7945399 0.29372957 1.3375429
0001d0 8f 7f c0 3f a5 ed ed 3e 83 c2 99 3f e2 2d c6 3f
       1.5038928 0.4647037 1.2012485 1.5482752
0001e0 0a 25 a0 bf 3a 37 46 c0 0d 42 98 bf 57 52 24 3e
       -1.2511303 -3.0971208 -1.1895157 0.16047035
0001f0 a9 8e 0f c0 72 23 11 c0 0b 83 2d c0 1c ac d7 bb
       -2.2430823 -2.2677884 -2.7111232 -0.0065817963
000200 d4 89 b1 be 12 44 b2 bf 21 ce b3 bf 3b 20 b9 bf
       -0.34675467 -1.3927023 -1.404728 -1.4462961
000210 82 c0 20 c0 ab 46 d4 be 9a 19 16 c0 50 3d 71 bf
       -2.5117497 -0.41460165 -2.3453126 -0.9423418
000220 58 2e e2 bf f6 f3 a6 bf fd 77 47 bf 12 22 11 c0
       -1.7670393 -1.3043201 -0.7791746 -2.2677045
000230 9a 1e 4d c0 10 93 8a 3e a1 e9 88 bf 8f 69 99 bf
       -3.2049928 0.27065325 -1.0696298 -1.1985339
000240 4a e6 a9 3f 3a 14 cd 3f 7d 88 20 3f 8b cd d4 40
       1.3273404 1.6021798 0.62708265 6.6500907
000250 98 a6 48 bf f3 66 93 bf ed 9e 85 bf 72 7b bb 3e
       -0.783792 -1.1515793 -1.0439125 0.3661762
000260 98 a6 f7 bf ef 72 ec bf 0d 65 82 bf 79 0a c5 bf
       -1.9347715 -1.8472575 -1.0187088 -1.5393821
000270 be 5c 90 3f 4c ed f0 bf d9 c9 0b c0 4c 95 b4 bf
       1.1278303 -1.8822417 -2.1841948 -1.4108062
000280 e1 43 18 c0 06 7e 71 bf ce d1 b3 bf 89 6e b1 bf
       -2.379143 -0.9433292 -1.4048402 -1.3861858
000290 0e 50 67 c0 6e f7 40 bf 37 05 21 c0 f1 c0 42 c0
       -3.6142612 -0.7537755 -2.5159433 -3.0430262
0002a0 74 25 ef bd 54 55 8f bf 55 a3 b8 3f 8c 73 db 3f
       -0.116770655 -1.1197915 1.4424845 1.7144637
0002b0 88 17 56 bf b4 b8 25 40 86 c3 58 c0 a9 6f 74 bf
       -0.83629656 2.5893984 -3.3869338 -0.9548288
0002c0 07 47 31 c0 90 c5 04 c0 17 c2 f9 bf 60 37 bd bf
       -2.7699602 -2.0745583 -1.9512357 -1.4782524
0002d0 1e 04 20 c0 1b 5b 3c c0 92 66 0d c0 f3 43 86 c0
       -2.5002513 -2.9430606 -2.2093854 -4.1957946
0002e0 0c 9c 63 bf 7c b9 53 c0 41 df 2b c0 17 1d b5 bf
       -0.88909984 -3.308196 -2.6855013 -1.4149503
0002f0 9b ae 17 c0 9b d8 c6 bc b0 5c 2f c0 12 e1 97 bf
       -2.370032 -0.024273207 -2.7400322 -1.1865561
000300 70 1b c4 bf 5b 16 29 c0 c5 ef 6d bf ab a6 48 3f
       -1.5320873 -2.6419895 -0.92943984 0.78379315
000310 1f 95 2f bf 60 10 d6 3f 54 97 3e 40 e5 aa 26 40
       -0.68586916 1.6723747 2.9779863 2.6041806
000320 8f 89 3c bf 30 bb 8b bf e5 ce 31 3f 8c dd 16 3f
       -0.736474 -1.09165 0.6945632 0.58931804
000330 5c c7 0d 3e 04 33 e0 bf 53 0f 93 be a2 a0 5b bf
       0.13845581 -1.7515569 -0.2872263 -0.8579198
000340 c3 ca 6b 3e b3 57 32 be 15 5b ad 3f 88 01 00 3f
       0.23026566 -0.17416267 1.3543421 0.50002337
000350 14 6b 99 3e 3d aa 4f 3e 6b f6 b0 bf 50 a3 b0 be
       0.29964507 0.20279785 -1.3825201 -0.34499598
000360 78 24 9c be 6b a6 80 3e 0f 9a 61 40 48 99 9c 3f
       -0.30496573 0.25126967 3.525028 1.2234278
000370 39 d6 b8 bf 2b 22 03 bf 54 f7 33 bf 80 46 fb 3d
       -1.4440376 -0.5122401 -0.7029927 0.12269306
000380 05 d4 d0 bf f0 d5 1c be 36 15 1c 3d bb 1f 38 3e
       -1.6314703 -0.15315986 0.038106166 0.17980854
000390 48 b2 41 bf f4 b2 a5 be db b7 be bf 87 49 19 bf
       -0.7566266 -0.32363093 -1.4899858 -0.5987782
0003a0 ad f5 2c bf e6 25 b0 3e f1 a9 9a bf 90 31 31 3f
       -0.6756237 0.34403914 -1.2083112 0.6921625
0003b0 91 2a 97 3f 96 80 0e c0 38 a1 b2 3e d3 db 1e 3f
       1.1809865 -2.2265983 0.34888625 0.62054175
0003c0 f5 94 db bf f4 7a 01 c0 4f 56 ba bf 53 da 72 bf
       -1.7154833 -2.0231295 -1.4557589 -0.94864386
0003d0 39 80 c3 bf dd b5 48 c0 d1 05 d4 be 70 00 80 be
       -1.5273505 -3.1361 -0.41410688 -0.25000334
0003e0 b6 50 bc bf 86 fb 27 c0 94 60 18 3d 58 42 b4 bf
       -1.4712131 -2.6247268 0.03720148 -1.4082747
0003f0 ed 3d cd bf 7a 0f 4d 3e ab 55 8c bf 70 94 9b be
       -1.6034523 0.20025435 -1.0963644 -0.30386686

critic.mlp.0.weight f4 [40, 20]
000000 2e f2 ed 3d 37 79 9d 3d 96 74 3c be ac 82 28 be
       0.11618458 0.076891355 -0.18403849 -0.16456097
000010 0c cd 16 be 85 55 b3 3d ec af 3c 3d 30 42 69 3e
       -0.14726657 0.08756546 0.04606621 0.22779155
000020 66 c7 92 bd be 1c 3d 3b 3e ec 8b bc d7 68 d6 3b
       -0.071669385 0.0028856243 -0.017080422 0.0065432596
000030 53 9c 84 bf 95 b7 87 bf f1 b7 2a bd 48 c3 70 3d
       -1.0360206 -1.06029 -0.041679326 0.058779985
000040 71 d4 1d 3e 2c 51 09 3e 3c 0b cf bd a9 00 40 bd
       0.15413071 0.13409871 -0.10109565 -0.04687563
000050 ef 9e 90 3e 6b ab bf 3e b4 7d 3c bd ed 57 2b 3e
       0.28246257 0.3743547 -0.046018317 0.1673276
000060 f1 c5 cb 3d 95 e9 2f 3e c3 92 27 3e b4 2b 7c be
       0.09949864 0.17178948 0.16364579 -0.24626046
000070 6b 2b b8 be 16 f1 bc be 87 02 01 be 87 13 1e 3e
       -0.35970625 -0.36902684 -0.1259862 0.15437137
000080 07 aa 38 3c 79 68 8b bd 06 ba 47 be c4 34 7e be
       0.011271006 -0.06807036 -0.19504556 -0.24824816
000090 79 50 3c bd 07 dd ec 3d e0 a9 79 3d f5 70 8e 3d
       -0.045975182 0.11565595 0.06095302 0.069551386
0000a0 40 56 9f be c7 2c b2 be 84 f4 1a 3d 8d ca 55 be
       -0.3112049 -0.34799787 0.037830845 -0.20878048
0000b0 74 1b b8 bc aa 23 fb bc 59 cd 2e 3e 0b 96 24 3e
       -0.022474028 -0.030656654 0.17070521 0.16072862
0000c0 8c 2b 9d bd 1e 62 e5 bc df c6 30 3e 6b fb 80 3e
       -0.076743215 -0.028000887 0.17263363 0.25191817
0000d0 e2 3e cc 3d d8 14 19 3e 91 db 37 3e 5d f8 d0 bd
       0.099729314 0.14949358 0.17954852 -0.102036215
0000e0 ef 5f 3a 3e 10 58 e9 3b 22 5d 00 be bf e5 af bd
       0.18200658 0.0071210936 -0.12535527 -0.085887425
0000f0 c5 37 c1 3c 3e 90 1b 3d 09 a2 07 be 55 59 8a 3d
       0.023586163 0.037979357 -0.13245405 0.0675532
000100 e9 4a 06 bd e1 56 12 bd 39 b8 07 be ea d0 b6 bd
       -0.032786284 -0.035727385 -0.13253869 -0.08926566
000110 1b 31 8d 3c b1 32 0d 3e 01 75 a0 be 9e 5f 64 be
       0.01723533 0.13788868 -0.31339267 -0.223021
000120 b0 1e be 3d ef d5 3a 3d 66 2b 5b 3d fc 4b 66 3d
       0.09283197 0.04561418 0.053508185 0.056224808
000130 96 a5 5d bd 6e 40 97 be 13 cc f6 bd aa da 8f be
       -0.054112993 -0.29541343 -0.12050643 -0.28096515
000140 03 16 11 bf 17 aa 7c 3e 25 1a 2e 3e 47 68 64 be
       -0.5667421 0.24674259 0.17002161 -0.22305404
000150 07 d3 46 3d 49 78 7a 3d 6b 4e d6 bd 5e 49 2e be
       0.048541095 0.06114987 -0.10464176 -0.17020175
000160 6b 46 03 3e d6 69 8e bd 19 77 67 3c 56 48 39 3d
       0.12819831 -0.0695378 0.014127516 0.045235
000170 52 ee b9 3d 80 c3 64 bd 31 0c 94 be aa 01 5a be
       0.09078659 -0.055850506 -0.2891555 -0.21289697
000180 ac 06 6e 3e 3d b5 50 bd 31 17 78 be be 51 49 be
       0.23244733 -0.050954092 -0.24227597 -0.19660088
000190 cd f4 95 3e 4a c6 6e 3e 21 ad c7 bd 36 84 66 bd
       0.2928833 0.23317829 -0.097498186 -0.05627843
0001a0 6a 4a df be b0 d8 4b be f9 95 13 be 83 c6 17 be
       -0.4361146 -0.19906878 -0.14412679 -0.1482182
0001b0 56 14 42 3d 46 e9 08 3e 60 da 89 bd 74 b6 20 3e
       0.047382675 0.13370237 -0.06731105 0.156946
0001c0 fd 65 9c 3b 2c 1a 49 3e aa c2 35 3e 93 3e 28 be
       0.0047729 0.1963889 0.1775004 -0.1643012
0001d0 8f df 3e be 53 04 c4 bd 98 01 69 3d 38 4d 9e 3d
       -0.18639968 -0.09571137 0.056886286 0.07729572
0001e0 b0 75 6f be 0f 98 b1 bd 04 72 df bd 02 b2 d8 3d
       -0.23384738 -0.08671581 -0.10910419 0.10580827
0001f0 14 b1 b5 bd 16 4d b5 bd 05 90 99 bc 33 d3 92 bd
       -0.088716656 -0.088525936 -0.018745432 -0.07169189
000200 d8 3f 76 be 1d 74 fe bb e9 51 29 bc cd 22 ae 3d
       -0.24047792 -0.0077653066 -0.01033447 0.085027315
000210 c6 93 7a be 66 74 9c 3d dd 08 4a 3e 0f 5c 69 3c
       -0.24470434 0.07639389 0.19729944 0.01424314
000220 35 dd e9 3d f6 31 09 be 56 ed a8 3d cb b6 37 3e
       0.11419145 -0.13397965 0.08248393 0.17940824
000230 a3 84 4d 3e dc fe ca 3e f2 63 59 3e 55 7a 84 bc
       0.20070128 0.39647567 0.21229532 -0.016171614
000240 1c 15 b3 bc 51 3d 38 3d 37 d3 19 3e 38 72 64 bb
       -0.021860652 0.04498035 0.15021978 -0.0034858119
000250 fd f5 86 bd b8 84 b2 be 6a 5e 58 be e9 56 43 be
       -0.06589887 -0.3486688 -0.21129766 -0.19076122
000260 58 0a be bd 93 90 5b 3d 94 6a f3 3d ac e9 5e be
       -0.09279317 0.053604674 0.118855625 -0.21768826
000270 6f 6b 03 3e 08 37 60 be 1f f8 49 bd db da bd bd
       0.12833951 -0.21895993 -0.049308892 -0.09270259
000280 f0 00 b7 bd bd e1 84 3c 20 78 4d be 4b b4 45 be
       -0.08935726 0.016220922 -0.20065355 -0.19307058
000290 75 15 1b be 9e e6 4e bc fe 2d e0 bd 67 5c 9c 3d
       -0.15144904 -0.012628226 -0.10946272 0.07634812
0002a0 85 c2 06 be a0 3c 42 bd 69 4c 41 3e 54 f0 ca bd
       -0.13160141 -0.047421098 0.18876804 -0.0990912
0002b0 89 be 63 3e 26 83 02 3e 7a b6 56 be 40 ce 08 3e
       0.22240652 0.12745342 -0.20968047 0.13359928
0002c0 2e 1b 55 bd 1b 3c e1 37 bd 08 2f 3e fb 18 41 be
       -0.052027874 2.6850079e-05 0.17093177 -0.18857186
0002d0 71 15 be 3e 83 66 9c be 45 83 23 3e a9 aa 7f 3d
       0.37125733 -0.3054696 0.15968044 0.062418614
0002e0 75 fa f4 3d 71 e1 2b 3c 7a 28 85 bd 28 af 6e bd
       0.119618334 0.010490761 -0.06501861 -0.05827251
0002f0 d9 29 a6 be c8 7e ad 3e a7 48 2a 3e 28 27 11 3e
       -0.32453802 0.3388579 0.16629277 0.14175093
000300 a6 ce 96 3c be 84 5e 3b 5d ed 2c be f7 8f 09 be
       0.018409085 0.0033953632 -0.16887422 -0.13433824
000310 52 e7 67 bd 12 ba 5d 3d da f6 13 be 6d 19 84 bc
       -0.05661709 0.05413253 -0.14449635 -0.016125405
000320 c5 d4 02 3e 08 4e eb 3e e7 15 2d be 69 31 1d be
       0.12776478 0.4595797 -0.16902886 -0.1535088
000330 c1 fd 1f be 1f 2d a1 3c 5b 9d 28 be 13 a9 d5 3d
       -0.15624143 0.019674836 -0.16466276 0.10432639
000340 b7 31 03 3e f8 69 bf bc 83 05 b0 bd de 91 03 be
       0.12811933 -0.02336596 -0.08594801 -0.12848613
000350 10 b2 02 3e 3d c4 dc 3d 83 d4 af bd 6e 5d 64 bd
       0.12763238 0.10779617 -0.08585455 -0.055753164
000360 fd 83 89 be 5d 55 98 be 40 2d c5 3d 8b 10 88 be
       -0.26858512 -0.29752627 0.096277714 -0.2657512
000370 4c 2c 32 be ac b2 b9 3e 65 6d a5 3d 2e 74 cf 3b
       -0.1739971 0.36269128 0.08077506 0.0063309884
000380 5b cd 3c be 29 56 e3 3d c6 4a 6c be e1 31 0a be
       -0.18437712 0.11100418 -0.23075399 -0.1349559
000390 a5 7e a2 bc b3 7c 50 bc 12 63 8d bd 62 52 e7 3d
       -0.01983578 -0.012725043 -0.06903662 0.1129501
0003a0 5c 09 73 3d 1d 17 4d 3e 35 bc 85 3d 35 f5 59 be
       0.059335098 0.20028348 0.06530038 -0.21284945
0003b0 95 9a 16 3e a1 16 63 be f8 3d 2a be 31 41 bb bb
       0.14707406 -0.22176601 -0.16625202 -0.0057145585
0003c0 d4 03 13 be 58 fc 4d 3e 9a 6b 93 bd 0d ad bb 39
       -0.14356929 0.20115793 -0.07198258 0.00035796352
0003d0 5e 3d ae 3c cf 35 bd be 86 6e f3 3d a3 2b 69 be
       0.021269497 -0.36955115 0.11886315 -0.22770552
0003e0 ff 7b 62 bd 40 25 d7 bd e0 6b 24 be 99 04 59 bc
       -0.055294033 -0.10505152 -0.16056776 -0.013245725
0003f0 33 fb 36 3e 27 0e 08 bc 6b c4 33 be b9 82 00 be
       0.17869262 -0.008304155 -0.17555396 -0.12549867

critic.mlp.0.bias f4 [40]
000000 c9 91 19 3e c0 a0 09 be 63 df 54 3e 56 90 98 be
       0.14997019 -0.13440228 0.2078834 -0.2979762
000010 f3 a4 89 bd 58 ac 66 3e 8e e7 84 3e 6a b8 06 be
       -0.06720915 0.22526681 0.25957912 -0.13156286
000020 8c da 02 3d 6f 7b 78 3c 57 a9 41 be 78 4e 18 be
       0.031946704 0.015166148 -0.18912254 -0.14873683
000030 2b 87 91 3c 3f da 04 be 12 a9 bc 3c 6d 2b 9d 3c
       0.017764648 -0.1297388 0.023029838 0.019185746
000040 a0 ba 24 be 18 3c fe 3d 51 e0 f2 bc 48 8c 6d 3d
       -0.16086817 0.12413806 -0.029647978 0.05799511
000050 32 92 63 3e 1b a9 e8 bd 59 c8 1a 3e a3 59 f1 bd
       0.22223738 -0.11360379 0.15115489 -0.11784675
000060 04 ca ed bc 5e e3 e6 bd 3c ec 0a 3d cb 22 27 3c
       -0.029026993 -0.112738356 0.033916697 0.010201166
000070 81 b1 f6 bb 19 72 42 bd 7f 3e 1f 3e 56 f6 99 bd
       -0.0075284843 -0.047472093 0.15551184 -0.07517688
000080 ed 34 2e 3c e6 7a 29 be ba 5a 61 be 16 b8 05 3e
       0.010632736 -0.16550788 -0.22007266 0.13058504
000090 7e 2e a9 bc c9 ec 31 be 5e 56 af bd 0b 59 77 3d
       -0.020652052 -0.17375483 -0.08561395 0.060387652

critic.mlp.2.weight f4 [1, 40]
000000 fd 5d 5b be 73 41 f5 3e a8 5b 2c 3e ca eb 24 3c
       -0.21422572 0.47901496 0.16831839 0.010065982
000010 54 84 aa 3e 40 8a f8 bd 0c e5 42 3e 3e e2 62 3e
       0.33304083 -0.12135744 0.19032687 0.22156617
000020 49 cb 0f 3d 3f 6a cb 3e 4e d3 44 3e a3 9b 39 3e
       0.035105977 0.39729497 0.19221231 0.18125777
000030 fd 50 d4 bd c2 40 22 bd f9 d4 e6 bc 94 f2 63 bd
       -0.1036701 -0.03961254 -0.028177725 -0.055651262
000040 df a9 9a bd 31 66 af be 86 a9 6b be 4c 1a 2b be
       -0.075519316 -0.34257653 -0.23013887 -0.1670925
000050 f7 16 e8 3d 6a 66 d2 3e 0d b8 57 3e 5e 7c 34 3c
       0.11332505 0.4109376 0.21066304 0.01101598
000060 38 b0 46 3e 3e 09 cb be 45 6d 45 be 28 dc 0e be
       0.1940316 -0.3965549 -0.19279964 -0.1395117
000070 5c 6d d0 3e 6e 94 fa 3d 98 84 ca 3d a6 f7 c0 be
       0.40708435 0.12235342 0.098885715 -0.3768894
000080 b9 6c 86 be 01 4b 6f bd 72 d1 0a be 30 44 8b 3d
       -0.26254824 -0.05842114 -0.1355646 0.06800115
000090 4f 19 df 3d 8b 32 fc 3d ae 58 d7 bd fb 29 5e bd
       0.10893499 0.12314328 -0.10514961 -0.054239254
