nudge/models/threefish/logic/beam_search_top3.pth (torch, 3291 bytes, 4 tensors)

actor.im.W f4 [6, 18]
00000000: c28a 1940 7c8e c7bf 2fd9 ba3e 67d0 683f
00000010: aef7 95be c98e 1cc0 3538 62bf 13e4 f6bf
00000020: e3be f0bf c94f aa3f dd0d fdbf c2f5 3940
00000030: 8790 8ebf 6751 d4bf dd7b afbf 87fc c0bf
00000040: 3e63 afbe 76eb fdbf a9be d0be ea66 bdbf
00000050: 735e 3ec0 4b93 2340 ead3 323d 956c 59bf
00000060: ca4b b33f 1a5c 04c0 2e60 32bf 3d9e 6ebf
00000070: 2868 873f 9d73 933f 6827 783f b460 50be
00000080: 4378 c2bf 25cc 1ec0 3d63 82bf 7802 dabe
00000090: 0015 913f 8d85 8c3f 8c58 cdbe 66c0 38be
000000a0: f165 73bf 5e67 b6bf 3430 87c0 51d0 0040
000000b0: 04c6 99bf 1119 96be 448c 8fbf a4f7 673f
000000c0: 61a4 bfbf 6a23 a4bd 385b 51bf 53a3 003f
000000d0: 6c4e c7be 8136 86bf 1810 39bf e964 df3e
000000e0: d943 9cbf 8c4e 79bd 5a4f cebf f78a 07c0
000000f0: 4d84 a7bf acaf 4abf 59c5 d6bf a18d 05c0
00000100: fdca 88be 1727 85bf da5f 11c0 75fc 2b3c
00000110: 523c d4bf 06ae b23f 232b 493d abd9 383f
00000120: 24a3 6cbf a7d5 4ec0 1e03 d3bf 2167 2dc0
00000130: 41ea 38c0 68a1 27c0 e143 16c0 eeda fcbf
00000140: 1a21 4bc0 e2f4 25be 4e3e c9bf 43e6 5bc0
00000150: face 3e3f 1cb3 6a40 ed72 08bf d45d 0fc0
00000160: 2602 45c0 cb8e 46bf c014 753d 1c10 e23f
00000170: 4666 903e 224e cc3f 8c99 b93e 4b5a 11bf
00000180: 8579 023f 5a9e 2040 59c0 d4bd 19a1 f4bc
00000190: 6bfc d33f 3a38 a9bf 1499 5bbf 7c6d d33f
000001a0: 7dcc 2dbf fc71 1440 4fc2 833d e1d4 6abb
2.399094 -1.5590358 0.36493823 0.90942997 -0.29290527 -2.446215 -0.88367015 -1.9288353
-1.8808254 1.3305598 -1.9769856 2.9056249 -1.1137856 -1.6587342 -1.3709675 -1.5077065
-0.34255403 -1.9837482 -0.40770462 -1.4797032 -2.9745147 2.555865 0.04365913 -0.8493131
1.4007504 -2.0681214 -0.6967801 -0.932102 1.0578661 1.1519657 0.9693513 -0.2034939
-1.5192951 -2.48121 -1.0186535 -0.42580009 1.1334534 1.0978256 -0.40106618 -0.18042144
-0.95077425 -1.4250295 -4.224634 2.0127146 -1.2013555 -0.29316 -1.1214681 0.90612245
-1.497204 -0.08014567 -0.81779814 0.50249213 -0.3892702 -1.0485383 -0.7229018 0.43631676
-1.2208205 -0.060865924 -1.6117966 -2.1178567 -1.308725 -0.79174304 -1.6778976 -2.0867693
-0.26717368 -1.0402554 -2.2714753 0.010497202 -1.6580908 1.3959358 0.049113404 0.72207135
-0.9243643 -3.2317903 -1.6485326 -2.7094195 -2.8892977 -2.6192265 -2.347893 -1.9754312
-3.1738954 -0.16206697 -1.5722139 -3.435929 0.7453457 3.667182 -0.5330036 -2.2401018
-3.0782561 -0.77561635 0.059834242 1.7661166 0.28203028 1.5961344 0.3624996 -0.567784
0.50966674 2.509665 -0.1038825 -0.029861974 1.6561407 -1.3220284 -0.85780454 1.6517787
-0.6789015 2.319457 0.06433546 -0.0035832452

critic.mlp.0.weight f4 [10, 9]
00000000: aea8 0ebd aaa5 9f3d c7ff febe 790c f3bd
00000010: b524 03bd 9e35 19be fbbe 1e3e 08a5 243e
00000020: ee10 ccbd 44bb 123d 3dfa 9fbe 677c cabe
00000030: 6a72 203c 3b7b 35be 919f 09bf 7ea6 7f3c
00000040: 0b44 af3e e4f0 0b3e 2b46 8fbe 307e 8cbe
00000050: 5110 993d 168d 5f3e f006 053d 2ad9 3b3e
00000060: 37bd 89bd 452a 04bd 3c05 893e d3bb abbe
00000070: a5b1 71be ee5d e2bd 83e0 1fbe a40a 863e
00000080: 5ff3 77be 8020 1dbe 2378 6ebe fad6 9fbe
00000090: 05d6 85be 444e 6e3e 8565 8f3d b769 753d
000000a0: f22d 5abd 15f0 7cbe 4fb6 b6bc 341f b2be
000000b0: 8c73 a4be ae0d 25bd 0d68 993e 0c17 02bf
000000c0: 56cd 543c 3793 043e 97f6 1bbf 92ff d33e
000000d0: 08ba 5fbc d2ad 933e 4a59 203e f1c2 adbe
000000e0: f38c a33e d2f6 62be fa81 9dbe 59de 1d3e
000000f0: e343 493c 0a6b 2c3e 798a 38be 345a 013e
00000100: a21d 153e d761 433f 8c97 46bd eb89 263c
00000110: 2e56 8e3f 6ab2 533e d0c7 b4bd 99e0 47be
00000120: b303 2f3d db2d ef3e 2cb8 64be acb4 ae3c
00000130: 9efc c73d d552 81bf e576 3b3d a935 2ebf
00000140: 040e 2dbe cb58 013e 78ce 743e 90ce 63bf
00000150: bb6d a53d 21a6 0abe d759 0fbf 7185 7a3c
00000160: 24d9 92bc f62c 98be
-0.034828834 0.0779527 -0.49804518 -0.11867613 -0.03201743 -0.1496186 0.15502541 0.1607858
-0.099641666 0.03582312 -0.31245604 -0.39548036 0.009792903 -0.1772279 -0.53759104 0.01560366
0.342316 0.13666111 -0.2798322 -0.27440023 0.07473815 0.21831164 0.03247732 0.1834456
-0.06725543 -0.032266874 0.26761806 -0.33541736 -0.23602922 -0.11053072 -0.15612988 0.26179993
-0.24213932 -0.15344429 -0.23288016 -0.31218702 -0.26139846 0.23272043 0.07001785 0.05991527
-0.053266473 -0.24700959 -0.022303728 -0.3478943 -0.32119405 -0.04029625 0.29962197 -0.50816417
0.012988409 0.12946783 -0.6092314 0.41405922 -0.013655193 0.28843552 0.15659061 -0.3393779
0.31943473 -0.22164467 -0.30763227 0.1541685 0.012284252 0.16837707 -0.18021573 0.12632066
0.14562085 0.76321167 -0.04848437 0.010164718 1.112005 0.20673528 -0.08827174 -0.19519271
0.042728137 0.46714672 -0.22335881 0.021326385 0.0976498 -1.0103403 0.045767684 -0.6805063
-0.16899878 0.12631528 0.23906887 -0.88987064 0.0807757 -0.13539936 -0.5599646 0.015290604
-0.017925806 -0.29721802

critic.mlp.0.bias f4 [10]
00000000: 6882 d83d 047e 483e 4a53 4e3e 641d cd3d
00000010: 36b7 d2be 2822 743e 0e6a b43d ffc2 16be
00000020: b753 91bc 536c 8bbe
0.10571748 0.19579321 0.2014896 0.100153714 -0.41155404 0.23841155 0.08809291 -0.14722823
-0.017740114 -0.27231082

critic.mlp.2.weight f4 [1, 10]
00000000: 036b a63c c9e7 453e 5777 febd faa0 5dbd
00000010: 57af 89be b288 513d 1338 62bd 5aca 36be
00000020: cd9d 453e 5c75 d6ba
0.020314699 0.193267 -0.12425106 -0.054108597 -0.26891586 0.051155753 -0.055229258 -0.17850628
0.19298477 -0.001636188
