src/models/bigfish/logic/beam_search_top1.pth (torch, 3035 bytes, 4 tensors)

actor.im.W f4 [6, 6]
0	0x3f586e1b	0.8454301
1	0xbf044738	-0.5167117
2	0x3d81b7d1	0.06333888
3	0x404a70a1	3.1631243
4	0x3f706013	0.938966
5	0xbff1ed5c	-1.8900561
6	0x3f3c9079	0.7365795
7	0xbe956f9c	-0.29186714
8	0xbe140c15	-0.14457734
9	0x3e8d079b	0.27544865
10	0x3dd98f14	0.10622993
11	0x3fcbf893	1.5935234
12	0xbed02a9c	-0.40657508
13	0xbf85ad3e	-1.0443494
14	0x3fd6de1b	1.6786531
15	0xbf54ff68	-0.8320222
16	0x3f487d06	0.7831577
17	0xbfaf5f3f	-1.3700942
18	0xbf03e9fa	-0.51528895
19	0xbfcf995a	-1.6218674
20	0xc04a0755	-3.1566975
21	0x3d9b02e2	0.07568909
22	0x3fcc6d94	1.597094
23	0xbfc4d1d9	-1.537654
24	0x4023d296	2.5597281
25	0xbfdb5466	-1.7135131
26	0xbe2cc199	-0.16870727
27	0xbee633d0	-0.44961405
28	0x3fa8dca1	1.3192331
29	0x3f94947e	1.1607816
30	0xbf105fde	-0.5639628
31	0x3f7eebd7	0.99578613
32	0xbfa385ea	-1.2775242
33	0xc0248818	-2.5708065
34	0xbf3eded6	-0.7455877
35	0xbf15fbee	-0.5858754

critic.mlp.0.weight f4 [10, 9]
0	0xbdb39faa	-0.08770688
1	0x3d114fd8	0.035476536
2	0xbee6d133	-0.4508148
3	0xbe8b9073	-0.27258644
4	0xbe301857	-0.17196785
5	0xbd0158a3	-0.03157867
6	0xbd7eebee	-0.06223672
7	0x3da51a3e	0.08061646
8	0xbe3cb755	-0.1842931
9	0x3cac8b0f	0.021062402
10	0xbe70ca90	-0.23514771
11	0xbf1eaae2	-0.61979496
12	0xbcbcc69e	-0.023043927
13	0xbe3975a7	-0.18111287
14	0xbf2e8bc1	-0.68182
15	0x3d2b4eab	0.04182307
16	0x3ec14f50	0.37755823
17	0x3cf7f9a8	0.030270413
18	0xbed97344	-0.42470753
19	0xbe831bf8	-0.25607276
20	0x3e43ece3	0.19133334
21	0x3e21693d	0.15762801
22	0xbc8432b2	-0.016137455
23	0x3eb74c92	0.35800606
24	0xbd501d51	-0.05080921
25	0xbdd89be1	-0.105766065
26	0x3e96c5bf	0.29447743
27	0xbea9a226	-0.33131522
28	0xbd68959d	-0.056783307
29	0x3db27cc3	0.08715203
30	0x3d012caf	0.031536754
31	0x3ee9fe14	0.4570166
32	0xbd3a306e	-0.045456342
33	0xbd27e860	-0.040993094
34	0xbdaa4161	-0.08313251
35	0xbe4f3264	-0.20234066
36	0xbe5ebc50	-0.21751523
37	0x3e7ca5d1	0.24672629
38	0x3e0474e9	0.12935223
39	0x3da7c503	0.08191874
40	0xbd03c857	-0.03217348
41	0xbe410c8f	-0.18852447
42	0xbd342b09	-0.043986354
43	0xbec691b0	-0.38783026
44	0xbeb23f68	-0.34814
45	0xbe4a6050	-0.19763303
46	0x3e3dd748	0.18539155
47	0xbf044bc1	-0.5167809
48	0xbe36a8fb	-0.17837898
49	0x3d66621a	0.0562459
50	0xbf059834	-0.5218537
51	0x3eb866bf	0.3601589
52	0xbda3f1aa	-0.08005078
53	0xbb474384	-0.0030405233
54	0x3df137e5	0.11778239
55	0xbeb47a49	-0.35249546
56	0x3ee0ba3b	0.43892083
57	0xbe7069e5	-0.23477896
58	0xbe76c92a	-0.24100175
59	0x3e5bee29	0.2147757
60	0xbb9b30af	-0.004736028
61	0x3e71f6fc	0.23629373
62	0xbe400dac	-0.18755215
63	0x3db2da51	0.08733047
64	0x3e779709	0.24178709
65	0x3f31c121	0.69435316
66	0xbd9b8b72	-0.075949565
67	0xbc9e30ea	-0.019310433
68	0x3f6b0098	0.9179778
69	0x3dfc4233	0.12317314
70	0xbe3f2765	-0.18667372
71	0xbe9c2761	-0.30498794
72	0x3ca4dd3d	0.020125026
73	0x3f041f4f	0.51610273
74	0xbe11fe8e	-0.14257261
75	0x3d329e7b	0.04360817
76	0x3dda63b3	0.10663547
77	0xbf549218	-0.8303542
78	0x3d6a9886	0.057274364
79	0xbf461deb	-0.773894
80	0xbdf5eba2	-0.12007834
81	0x3e0c498c	0.13699931
82	0x3e37d4f5	0.1795233
83	0xbf4f0773	-0.8087074
84	0xbc66ad46	-0.014079398
85	0xbd570d85	-0.052503128
86	0xbf07b564	-0.53011155
87	0xbdc3fced	-0.09569726
88	0xbd439e26	-0.047758244
89	0xbeb0eae6	-0.34554213

critic.mlp.0.bias f4 [10]
0	0xbc5995dd	-0.013280359
1	0x3e08d6e0	0.13363218
2	0x3e5bb2a4	0.21454865
3	0x3e967d63	0.29392537
4	0xbeb6a5ef	-0.35673472
5	0xbbfac29a	-0.007652593
6	0x3d6be3e3	0.057590377
7	0xbe4afc3d	-0.19822784
8	0xbd536a9a	-0.051615335
9	0xbe86fd8b	-0.26365313

critic.mlp.2.weight f4 [1, 10]
0	0x3e147b1c	0.14500087
1	0x3e67bfbb	0.22631733
2	0xbe2dd3c3	-0.16975312
3	0xbe873169	-0.26404884
4	0xbe993be4	-0.29928505
5	0x3c541920	0.012945443
6	0xbdb9e0ce	-0.09076081
7	0xbe3e9cc3	-0.18614487
8	0x3e4f86bb	0.2026624
9	0xbc16db54	-0.009207565
