src/models/heist/ppo/ppo_.pth (torch, 13007 bytes, 7 tensors)

actor.mlp.0.weight f4 [40, 28]
-0.0995964 0.04703298 -0.15554091 -0.1390794 -0.1441858 -0.0464692 -0.090452716 0.06313367
-0.07421519 -0.015369993 -0.143984 -0.123855755 -0.22908899 -0.15580122 -0.16461098 -0.07987065
0.0076733325 0.011684524 -0.21499002 -0.16916585 0.06864158 0.15692857 -0.03889258 0.14141762
-0.030460792 0.019996984 0.17111892 -0.17531322 -0.13905014 -0.05960418 -0.07366527 0.1632808
-0.10771788 -0.072218485 -0.16702217 -0.21198492 -0.13914649 0.12462094 0.049335293 0.05660295
0.009938871 -0.09688807 -0.0030186754 -0.21144377 -0.13655218 -0.09742601 0.08424406 0.075812295
-0.083812684 -0.00681893 0.120865606 0.1878735 0.07500368 0.02553015 0.12671 -0.111273184
-0.46450964 -0.92997813 -0.13098097 -0.097625114 0.60599416 0.96633315 -0.048036944 0.12099907
0.10913132 -0.067895755 0.07112128 0.10769398 0.20549177 -0.085200496 -0.08172824 -0.005350199
0.083709665 -0.0022356238 0.22836015 0.2306561 0.037610214 -0.16433567 0.017384948 -0.118228294
-0.17612277 0.1679093 0.14369449 -0.18851507 0.8103887 -0.081027076 -0.031099133 -0.08650792
-0.40828156 0.07683491 0.21203253 0.23832405 0.12467061 0.32600626 -0.044290483 0.020160545
0.055602647 0.28950605 -0.0046698116 0.03393364 0.18763235 0.11412908 0.06035196 0.09518902
-0.18002412 -0.0033967928 -0.14231476 -0.14577271 -0.010412847 0.028374748 -0.07739395 0.112137824
-0.17234303 0.11385425 0.1295095 -0.15936549 -0.19640806 -0.01985226 -0.07382306 -0.056574054
-0.041896373 -0.06537159 -0.1937313 -0.01197148 -0.14937213 -0.08417906 -0.14870355 -0.1935772
-0.03044577 -0.14772119 -0.14172071 -0.061125327 -0.12311546 -0.009698448 0.13528308 -0.01942742
0.005252235 -0.01630329 0.038246483 0.12016236 -0.24884638 -0.2539104 0.17942229 -0.013667508
-1.4159107 -0.9810185 0.19261266 0.06270929 -0.5870295 -0.11197431 -0.11292148 -0.09556721
0.66074675 0.79066575 0.16610518 -0.118322305 -0.015651293 -0.13658063 0.023986455 -0.012687799
-0.036400866 -0.037105285 -0.1695832 -0.16317442 -0.02957184 0.0024439525 -0.08584988 0.071189456
-0.22361247 -0.064367004 0.16619465 -0.07708434 0.09184695 0.007864903 -0.22686969 0.06324808
-0.09238413 -0.11280486 0.094864756 -0.20903625 0.043857332 -0.08441995 0.07863425 -0.0035021359
0.035731386 0.0628814 -0.10170095 -0.095999494 -0.15573674 0.10239892 0.15004775 0.12930635
-0.13330397 0.008428587 -0.13322003 -0.10403173 -0.13569714 0.0036203056 -0.112617 -0.0041230647
-0.017550925 0.07780731 -0.17970428 -0.16658743 -0.15471081 0.0893888 -0.104781605 0.122555524
0.0044905306 0.0049295593 -0.038255658 -0.07420734 0.020942146 -0.08723661 -0.038176972 -0.012736279
-0.14782287 -0.09905153 0.15260178 -0.1533679 -0.0135700945 0.18694855 0.06826738 0.0053506615
-1.1944185 0.12604372 -0.1346084 -0.0536453 1.1553915 0.2166327 0.10435281 0.2581589
-0.111160696 0.0966883 0.21788853 -0.01719092 -0.12190979 -0.0044996617 0.022190241 0.15787037
0.058157746 0.07101659 0.041449536 0.10258839 0.097292505 -0.18276323 0.13663049 -0.15627365
0.0026046478 -0.03213015 -0.09953183 0.024977976 0.8821344 -0.19976486 -0.11219764 -0.069892965
00000000: 33f9 cbbd a7a5 403d 1e46 1fbe d56a 0ebe
00000010: 71a5 13be 7d56 3ebd 463f b9bd 3a4c 813d
00000020: 22fe 97bd 6cd2 7bbc 8b70 13be 16a8 fdbd
00000030: 4e96 6abe 5b8a 1fbe c88f 28be 3993 a3bd
00000040: 9470 fb3b 7270 3f3c 5826 5cbe d039 2dbe
00000050: f593 8c3d e2b1 203e d34d 1fbd c8cf 103e
00000060: e988 f9bc b7d0 a33c cc39 2f3e 4f85 33be
00000070: 2963 0ebe 8323 74bd d1dd 96bd 1533 273e
00000080: 319b dcbd 49e7 93bd dc07 2bbe 9312 59be
00000090: 6b7c 0ebe 4339 ff3d ce13 4a3d 7fd8 673d
000000a0: a5d6 223c 416d c6bd f8d4 45bb b784 58be
000000b0: 56d4 0bbe 4a87 c7bd 2688 ac3d 7a43 9b3d
000000c0: fca5 abbd 5571 dfbb 6388 f73d e961 403e
000000d0: 889b 993d 9b24 d13c 44c0 013e 32e3 e3bd
000000e0: 35d4 edbe 0c13 6ebf e01f 06be adef c7bd
000000f0: 6f22 1b3f 9c61 773f 63c2 44bd 5cce f73d
00000100: 3e80 df3d ee0c 8bbd 09a8 913d a98e dc3d
00000110: 6f6c 523e 997d aebd 2361 a7bd b950 afbb
00000120: f96f ab3d 8b83 12bb 3ed7 693e 1d31 6c3e
00000130: 2b0d 1a3d 9c47 28be e16a 8e3c ad21 f2bd
00000140: 8759 34be 6af0 2b3e a624 133e 180a 41be
00000150: a275 4f3f 86f1 a5bd 9cc3 febc 102b b1bd
00000160: 480a d1be 9f5b 9d3d 0e1f 593e 380b 743e
00000170: 4e53 ff3d 4bea a63e f069 35bd ba27 a53c
00000180: 9abf 633d 233a 943e 3805 99bb 00fe 0a3d
00000190: b222 403e 82bc e93d 9e33 773d 76f2 c23d
000001a0: 3e58 38be ba9c 5ebb f6ba 11be 7145 15be
000001b0: a59a 2abc 2972 e83c b880 9ebd 84a8 e53d
000001c0: b17a 30be 6b2c e93d 239e 043e b530 23be
000001d0: 321f 49be 35a1 a2bc 8b30 97bd 32ba 67bd
000001e0: 889b 2bbd 8ae1 85bd 7f61 46be 0724 44bc
000001f0: 02f5 18be 1266 acbd be45 18be 1a39 46be
00000200: 6869 f9bc 3944 17be 3c1f 11be 8d5e 7abd
00000210: f523 fcbd 3de6 1ebc a687 0a3e 4126 9fbc
00000220: f11a ac3b 7a8e 85bc 58a8 1c3d af17 f63d
00000230: 96d1 7ebe 8b00 82be 7aba 373e afed 5fbc
00000240: 903c b5bf 0724 7bbf 413c 453e ba6d 803d
00000250: 9147 16bf c952 e5bd 6043 e7bd beb8 c3bd
00000260: b326 293f 1269 4a3f 7a17 2a3e f752 f2bd
00000270: 2437 80bc cbdb 0bbe 3e7f c43c 7ce0 4fbc
00000280: 1319 15bd b6fb 17bd 38a7 2dbe 3217 27be
00000290: a540 f2bc b82a 203b 10d2 afbd c7cb 913d
000002a0: abfa 64be d9d2 83bd ee2e 2a3e 65de 9dbd
000002b0: 411a bc3d cbdb 003c 8750 68be 3688 813d
000002c0: e433 bdbd 3c06 e7bd 7448 c23d 990d 56be
000002d0: bfa3 333d 5ee4 acbd fe0a a13d 1784 65bb
000002e0: 135b 123d f7c7 803d 9648 d0bd 629b c4bd
000002f0: 7479 1fbe 86b6 d13d 1ea6 193e e268 043e
00000300: d680 08be 0e18 0a3c d56a 08be 960e d5bd
00000310: 31f4 0abe a642 6d3b bea3 e6bd c61a 87bb
00000320: f5c6 8fbc 7059 9f3d 6604 38be e595 2abe
00000330: 836c 1ebe 7a11 b73d bd97 d6bd 64fe fa3d
00000340: 4d25 933b 2488 a13b f7b1 1cbd 05fa 97bd
00000350: dd8e ab3c 1ca9 b2bd 755f 1cbd d3ab 50bc
00000360: e15e 17be 87db cabd a443 1c3e 7a0c 1dbe
00000370: 1a55 5ebc 716f 3f3e c5cf 8b3d 9a54 af3b
00000380: b5e2 98bf 9b11 013e c9d6 09be 2dbb 5bbd
00000390: dee3 933f f6d4 5d3e edb6 d53d 672d 843e
000003a0: 38a8 e3bd 8404 c63d 2c1e 5f3e f9d3 8cbc
000003b0: d7ab f9bd e671 93bb 4fc8 b53c c5a8 213e
000003c0: d136 6e3d 2571 913d fdc6 293d dd19 d23d
000003d0: 4b41 c73d 4926 3bbe dde8 0b3e 3306 20be
000003e0: bdb2 2a3b e79a 03bd 58d7 cbbd 9d9e cc3c
000003f0: 8fd3 613f 298f 4cbe e0c7 e5bd 0b24 8fbd

actor.mlp.0.bias f4 [40]
-0.117132075 -0.20671947 -0.06224115 0.15506539 -0.27959275 0.03727372 -0.17834447 -0.16785912
0.1766875 0.056033038 -0.2828818 0.114545755 0.06731045 0.1849419 -0.120453954 -0.14197066
0.08069519 -0.17806494 0.11185579 0.09051219 0.0077822427 -0.017312178 -0.031945284 -0.2460181
0.036144122 -0.22489323 -0.07845206 -0.14870048 0.23443031 -0.28734905 0.07024748 0.0022078652
-0.21280089 -0.0707722 0.15941243 -0.013341126 -0.1755262 -0.027846705 -0.05694426 0.03917555
00000000: f1e2 efbd 45ae 53be 93f0 7ebd 76c9 1e3e
00000010: c826 8fbe 54ac 183d ef9f 36be 43e3 2bbe
00000020: 91ed 343e e682 653d e2d5 90be f796 ea3d
00000030: 10da 893d 6961 3d3e 90b0 f6bd c260 11be
00000040: 8543 a53d a856 36be a614 e53d 745e b93d
00000050: 2f02 ff3b 45d2 8dbc 0fd9 02bd 2bec 7bbe
00000060: dc0b 143d 694a 66be 79ab a0bd f044 18be
00000070: 800e 703e 6a1f 93be e9dd 8f3d d5b1 103b
00000080: 7ae8 59be 04f1 90bd 033d 233e bd94 5abc
00000090: 24bd 33be c61e e4bc 623e 69bd 8b76 203d

actor.mlp.2.weight f4 [5, 40]
-0.07602454 -0.025031816 -0.41194868 0.4215651 0.105414234 -0.4997453 0.04546923 0.010967851
-1.4388808 0.541602 0.10278679 0.6033074 -0.29981792 0.17655592 -0.04097508 -0.09530462
-0.43539813 -0.09663264 -0.3291898 1.2770451 0.06270559 0.069721326 0.78032064 0.046518248
-0.059676804 0.41544294 -0.1926673 0.9600378 -0.1354762 -0.08081136 -0.8676242 0.23364468
-0.7429968 0.1435188 -0.817812 -1.365934 0.13019463 0.13469627 0.47662988 -0.071963325
-0.00014804432 0.11793605 -1.5698686 0.081970945 -0.0240075 -0.44364345 -0.094756074 0.12886204
0.45359635 0.06824997 -0.04532332 -0.42309225 0.57373774 -0.75505847 -0.122547254 -0.11946506
0.600085 0.25597605 0.22531855 -1.2171402 0.07438774 0.007912855 -0.0026098185 -0.17086267
-0.032752763 0.034503467 0.14987603 0.3408455 0.29582492 -0.15910587 -0.38542432 0.22356957
-1.0817434 0.021154128 -0.124931134 -0.57626677 -0.033879425 0.3089794 -0.08069842 -0.066992566
-0.17722163 0.09151412 -0.56924045 -0.65656286 -0.11505111 -0.04929377 -0.07304575 -0.050450385
-0.4268749 -0.4186599 0.22210546 -0.4641415 -0.097292304 -0.045721445 0.063733205 0.13298266
0.49432898 -0.35020074 0.4039585 0.13097842 -0.19020656 0.02233449 -0.118402354 0.25079203
0.053816468 -0.12056208 0.06432011 0.49750012 0.18507777 0.08155429 -1.0769845 -0.2743752
-0.4085475 -0.012459111 -0.20410742 -0.20718195 0.18858305 -0.14447139 -0.31688607 0.14588375
-0.108042635 0.007335273 1.671874 -0.15856934 -0.00029500187 1.0495236 -0.04105074 0.11819765
-0.44302723 -0.0613832 -0.11579661 0.47692385 -0.3276519 0.9111977 -0.1602743 -0.11695705
-0.95915157 -0.49719027 0.008920604 1.0948663 -0.24638969 -0.13665739 0.38015082 -0.14650145
0.08780666 -0.16189143 -0.1495239 -0.1209955 -0.061127085 0.053506467 0.28311214 -0.22103207
0.956091 -0.17853616 0.2991048 0.8853078 -0.17869492 -0.2950653 -1.1497881 -0.022529654
0.097996354 0.05503693 0.32751676 -0.6476545 -0.16233537 0.622006 -0.045389585 -0.07891544
1.2757064 -0.93298715 -0.4874267 -0.64609927 0.6202974 0.08705208 -0.07253286 -0.0063832533
0.2612029 0.09468624 -0.41954374 -1.770002 -0.009871572 -0.024874758 -0.77358854 0.44435352
-0.06341796 -0.7178773 0.07833764 -1.0128927 0.30880708 0.30317265 1.3968763 0.41314697
0.6074555 0.097387426 1.0822108 1.6490217 0.03265966 -0.25758842 0.7944412 0.071299255
00000000: c1b2 9bbd 860f cdbc f0ea d2be 61d7 d73e
00000010: 6be3 d73d 9ede ffbe f13d 3a3d 80b2 333c
00000020: 3f2d b8bf 6ea6 0a3f e181 d23d 5b72 1a3f
00000030: bc81 99be 13cb 343e 7cd5 27bd 122f c3bd
00000040: 81ec debe 55e7 c5bd 918b a8be 3776 a33f
00000050: ca6b 803d 0eca 8e3d 18c3 473f eb89 3e3d
00000060: aa6f 74bd f0b4 d43e 944a 45be 0ac5 753f
00000070: 46ba 0abe 6d80 a5bd 9f1c 5ebf 8d40 6f3e
00000080: 0a35 3ebf 98f6 123e 215c 51bf edd6 aebf
00000090: be51 053e d2ed 093e d508 f43e 8261 93bd
000000a0: 583c 1bb9 7588 f13d 74f1 c8bf 62e0 a73d
000000b0: 60ab c4bc 3c25 e3be 790f c2bd 69f4 033e
000000c0: c83d e83e a4c6 8b3d f2a4 39bd 8c9f d8be
000000d0: 7ae0 123f 834b 41bf 0efa fabd 19aa f4bd
000000e0: 2c9f 193f 4b0f 833e e8b9 663e 40cb 9bbf
000000f0: 9958 983d eba4 013c 7d09 2bbb a0f6 2ebe
00000100: c327 06bd 8253 0d3d 1a79 193e 4d83 ae3e
00000110: 5d76 973e a6ec 22be 5656 c5be 6cef 643e
00000120: 9176 8abf 6c4b ad3c e5db ffbd 3886 13bf
00000130: 27c5 0abd 8c32 9e3e 3745 a5bd 6633 89bd
00000140: 9679 35be c16b bb3d beb9 11bf 8114 28bf
00000150: eb9f ebbd 44e8 49bd 0399 95bd 10a5 4ebd
00000160: 598f dabe 975a d6be 9d6f 633e f4a3 edbe
00000170: 3041 c7bd 6946 3bbd 8e86 823d 9b2c 083e
00000180: b018 fd3e 834d b3be a6d3 ce3e 351f 063e
00000190: 82c5 42be d2f6 b63c ef7c f2bd d067 803e
000001a0: a86e 5c3d 40e9 f6bd 43ba 833d 56b8 fe3e
000001b0: 0785 3d3e f005 a73d a1da 89bf e87a 8cbe
000001c0: 232d d1be 4d21 4cbc 8901 51be 8127 54be
000001d0: ea1b 413e 4ff0 13be e43e a2be 8d62 153e
000001e0: 7545 ddbd bb5c f03b f8ff d53f 0060 22be
000001f0: 7baa 9ab9 ca56 863f d224 28bd 9c11 f23d
00000200: 77d4 e2be f36c 7bbd c626 edbd 5d2f f43e
00000210: fdc1 a7be 4144 693f f21e 24be 2e87 efbd
00000220: f58a 75bf b98f febe ba27 123c 9424 8c3f
00000230: 944d 7cbe eaef 0bbe 21a3 c23e 7a04 16be
00000240: fad3 b33d dec6 25be cb1c 19be 7dcc f7bd
00000250: 6560 7abd 9929 5b3d 13f4 903e 3b56 62be
00000260: 61c2 743f 2fd2 36be 4424 993e 88a3 623f
00000270: cdfb 36be cd12 97be 422c 93bf 1c90 b8bc
00000280: 50b2 c83d 676e 613d 47b0 a73e afcc 25bf
00000290: 3e3b 26be c93b 1f3f 6eea 39bd 6b9e a1bd
000002a0: 594a a33f 3fd8 6ebf fe8f f9be c366 25bf
000002b0: cfcb 1e3f 5c48 b23d 1c8c 94bd 9c2a d1bb
000002c0: 63bc 853e dcea c13d 70ce d6be 6d8f e2bf
000002d0: 60bc 21bc 26c6 cbbc e609 46bf 4e82 e33e
000002e0: 47e1 81bd cfc6 37bf 7c6f a03d 78a6 81bf
000002f0: f61b 9e3e 7239 9b3e d8cc b23f 0088 d33e
00000300: 3482 1b3f 0f73 c73d e285 8a3f 2513 d33f
00000310: 23c6 053d a1e2 83be 8060 4b3f 5805 923d

actor.mlp.2.bias f4 [5]
0.22855817 0.3050603 -0.55865 0.22660235 0.014495646
00000000: 270b 6a3e dd30 9c3e b003 0fbf 720a 683e
00000010: 257f 6d3c

critic.mlp.0.weight f4 [40, 28]
-0.123517215 0.29035264 -0.07069257 -0.14936325 -0.07683526 -0.08045108 -0.11773107 -0.41858208
-0.28094268 0.05660766 -0.20585121 -0.22327486 -0.28242558 0.09715748 -0.19226824 -0.051537324
-0.05149574 0.010086111 -0.31068754 -0.07273236 0.16177633 -0.0051534027 -0.065507405 -0.11676573
0.13522427 -0.013014003 0.17798527 0.10776938 0.2852788 0.25846666 -0.12280864 0.055315517
0.008476488 0.16505292 0.18460734 0.21795855 -0.06199404 -0.09529054 0.272764 0.24551487
0.13911249 0.077316575 0.12268364 0.268684 -0.07089412 0.12597257 0.15845394 0.33394825
0.16526166 0.16413555 0.008501219 0.111441515 -0.1888194 -0.110855885 0.033775512 0.001053948
-0.16294256 -0.09364454 -0.088264935 -0.18723644 -0.0025550525 0.107637964 0.05859331 -0.10789932
-0.19107725 -0.17890362 -0.014602285 0.11189574 -0.07653262 -0.10283373 -0.11892143 -0.034467686
-0.17946787 -0.16676633 0.16792463 -0.10823633 -0.034085527 -0.050562713 -0.16602206 -0.03331627
0.057850618 -0.07673767 -0.00805439 -0.0009039986 -0.19712462 0.04153963 0.15265469 0.12884912
-0.16320765 0.20867722 -0.29851794 -0.16820993 -0.10910782 -0.24131538 -0.042086177 -0.20756891
0.15407625 -0.33176613 -0.2989263 -0.15266703 -0.17294715 0.03198373 -0.020454861 0.055578563
-0.06346076 0.009610158 0.037019856 0.18864557 0.17322366 -0.09780577 -0.1608055 -0.17032747
-0.07392346 0.10130415 0.06346962 0.1823401 0.12512378 -0.060376164 -0.13472024 0.16694883
0.03621397 -0.0149215525 -0.12082849 0.13128227 0.06899439 0.023492891 0.0612817 0.082757264
-0.18741533 -0.064418286 0.09575233 -0.056966316 -0.16441071 0.17186031 -0.004086839 0.15244892
-0.1477117 0.06506542 -0.07118369 -0.079526626 -0.11890061 -0.12488423 0.10355473 -0.035906456
0.22256929 -0.050406385 -0.059969336 -0.13992414 -0.13592675 0.044565357 -0.20577227 -0.06578133
0.0700042 0.04489452 -0.12359945 0.10039554 0.06882995 -0.047853425 -0.10543633 0.0880411
0.16441914 -0.17303942 -0.040831354 -0.01753796 -0.06842308 0.16133586 -0.02791483 0.16022831
-0.12026096 -0.5154111 -0.11023365 -0.0628378 -0.17049703 0.3065201 -0.14091946 0.045874752
-0.17033389 -0.23769926 0.036006603 -0.1670558 0.022342684 -0.11016182 -0.27571377 -0.237884
-0.005857745 -0.09736147 -0.088753246 0.051801596 0.06419357 -0.017686807 0.047237042 -0.10888093
-0.15879291 -0.14205787 -0.15857546 0.038782842 0.12318375 0.020495588 -0.18485309 0.10237258
-0.019291028 -2.1260304 -0.16814756 -0.11630491 -0.05401871 -0.074033104 -0.11745345 0.13199611
0.020007363 0.079732 -0.06275029 0.07109334 0.079640724 0.24268776 0.06749225 -0.023406615
0.034171518 -0.14416464 0.085438766 0.070628226 -0.023704445 -0.1562638 0.07558827 0.123318754
-0.033957668 0.06313274 0.07004799 -0.07558676 -0.007454824 0.048098404 -0.08061801 -0.23196098
-0.07522168 0.05141099 -0.14319846 -0.18047719 0.11330415 -0.08571555 -0.11361718 -0.071855
-0.13651966 0.080528 -0.07479355 -0.19586937 0.03501354 0.004942784 0.012218365 -0.07201884
0.04842152 -0.15281974 0.056491163 0.102408215 -0.012606979 0.48279613 -0.0006869822 0.00026826863
00000000: 98f6 fcbd 1aa9 943e 44c7 90bd aef2 18be
00000010: ce5b 9dbd 89c3 a4bd fd1c f1bd 6450 d6be
00000020: b8d7 8fbe 6fdd 673d a9ca 52be 2aa2 64be
00000030: 169a 90be 80fa c63d f7e1 44be cd18 53bd
00000040: 32ed 52bd 3740 253c 7012 9fbe b4f4 94bd
00000050: b2a8 253e e0dd a8bb bf28 86bd df22 efbd
00000060: 3b78 0a3e af38 55bc c541 363e 31b6 dc3d
00000070: 1010 923e be55 843e 1983 fbbd 8692 623d
00000080: f8e0 0a3c a203 293e b509 3d3e 8730 5f3e
00000090: 76ed 7dbd b027 c3bd b9a7 8b3e 4068 7b3e
000000a0: 8173 0e3e 2758 9e3d 8f41 fb3d f390 893e
000000b0: f030 91bd f4fe 003e c041 223e 44fb aa3e
000000c0: 5a3a 293e 2613 283e b248 0b3c 733b e43d
000000d0: df59 41be 6908 e3bd 3158 0a3d a024 8a3a
000000e0: 6ada 26be b5c8 bfbd 3fc4 b4bd e9ba 3fbe
000000f0: ab72 27bb 4b71 dc3d 8aff 6f3d 52fa dcbd
00000100: c1a9 43be 8332 37be 6c3e 6fbc 9829 e53d
00000110: 22bd 9cbd 7e9a d2bd 148d f3bd fd2d 0dbd
00000120: 6dc6 37be cbc4 2abe 6ff4 2b3e 02ab ddbd
00000130: 449d 0bbd d91a 4fbd b001 2abe a476 08bd
00000140: c5f4 6c3d a428 9dbd 8ff6 03bc 52fa 6cba
00000150: 09db 49be 7625 2a3d 8351 1c3e 06f1 033e
00000160: e81f 27be 7baf 553e 58d7 98be 393f 2cbe
00000170: ec73 dfbd 611b 77be 8e62 2cbd f28c 54be
00000180: 2ac6 1d3e 40dd a9be de0c 99be bf54 1cbe
00000190: 0f19 31be 5f01 033d f490 a7bc 59a6 633d
000001a0: b7f7 81bd ed73 1d3c 22a2 173d 4e2c 413e
000001b0: 8b61 313e 644e c8bd 32aa 24be 536a 2ebe
000001c0: 2f65 97bd 8d78 cf3d 5cfc 813d 5db7 3a3e
000001d0: 7320 003e ff4c 77bd 1af4 09be a2f4 2a3e
000001e0: 1a55 143d 8779 74bc ed74 f7bd dc6e 063e
000001f0: ee4c 8d3d 2a74 c03c 8502 7b3d a47c a93d
00000200: cee9 3fbe bced 83bd cc19 c43d 8355 69bd
00000210: 485b 28be 26fc 2f3e e4ea 85bb 921b 1c3e
00000220: bc41 17be 0541 853d c1c8 91bd dbde a2bd
00000230: 2a82 f3bd 4ec3 ffbd 8114 d43d a612 13bd
00000240: 34e9 633e ed76 4ebd 68a2 75bd 4648 0fbe
00000250: 6230 0bbe 2a8a 363d f7b5 52be 5db8 86bd
00000260: 5d5e 8f3d 51e3 373d b521 fdbd 2d9c cd3d
00000270: b8f6 8c3d f401 44bd 01ef d7bd e44e b43d
00000280: 7e5d 283e 3f31 31be c73e 27bd c5ab 8fbc
00000290: 6621 8cbd 3a35 253e a4ad e4bc e412 243e
000002a0: 614b f6bd fbf1 03bf 2ec2 e1bd 1bb1 80bd
000002b0: c696 2ebe 34f0 9c3e 314d 10be 2ae7 3b3d
000002c0: 026c 2ebe 6f67 73be a97b 133d ad10 2bbe
000002d0: 0108 b73c 859c e1bd 5b2a 8dbe dd97 73be
000002e0: 54f2 bfbb 7365 c7bd 43c4 b5bd e92d 543d
000002f0: eb77 833d ece3 90bc a17b 413d f7fc debd
00000300: 9c9a 22be 9e77 11be 9b61 22be c2da 1e3d
00000310: c347 fc3d 5de6 a73c 214a 3dbe b7a8 d13d
00000320: 3808 9ebc e210 08c0 e02e 2cbe 4531 eebd
00000330: b942 5dbd ab9e 97bd 6f8b f0bd fd29 073e
00000340: 7be6 a33c 884a a33d 3983 80bd 6399 913d
00000350: ad1a a33d 2483 783e 6039 8a3d 3bbf bfbc
00000360: 6ff7 0b3d e59f 13be 85fa ae3d 88a5 903d
00000370: d32f c2bc 9e03 20be 06ce 9a3d 8b8e fc3d
00000380: 3217 0bbd bd4b 813d 5275 8f3d 3bcd 9abd
00000390: 9947 f4bb d502 453d 0e1b a5bd 2e87 6dbe
000003a0: d30d 9abd 5594 523d 9ea2 12be 03cf 38be
000003b0: 020c e83d a28b afbd 20b0 e8bd b728 93bd
000003c0: cfcb 0bbe ddeb a43d 5c2d 99bd fb91 48be
000003d0: 5c6a 0f3d 14f7 a13b 8a2f 483c 9d7e 93bd
000003e0: a555 463d c77c 1cbe 4763 673d 66bb d13d
000003f0: 818d 4ebc 0e31 f73e 9816 34ba 68a6 8c39

critic.mlp.0.bias f4 [40]
-0.41188642 0.28284043 -0.03952216 -0.23545457 -0.022404876 -0.20325139 -0.08404092 0.080061324
0.10177613 -0.27429014 -0.0037032973 0.2869762 0.07459776 -0.16179265 0.10162774 -0.12326679
0.0024680223 -0.23558277 0.12382084 -0.10366291 0.04449353 0.105727255 -0.010515006 -0.2709636
0.033786695 0.035893057 0.09735828 0.058503356 0.0222557 -0.21954012 -0.015803283 -0.17720829
-0.2721744 0.17192098 -0.21991229 -0.113293804 0.16190727 -0.18360159 0.014803453 -0.06844009
00000000: c7e2 d2be 76d0 903e fde1 21bd 011b 71be
00000010: 6e8a b7bc 2221 50be a51d acbd 31f7 a33d
00000020: 0170 d03d c26f 8cbe 05b3 72bb 8bee 923e
00000030: b6c6 983d f9ac 25be 3422 d03d 4c73 fcbd
00000040: 8bbe 213b 9c3c 71be c895 fd3d 384d d4bd
00000050: d93e 363d 8887 d83d 2247 2cbc bebb 8abe
00000060: eb63 0a3d 9904 133d c763 c73d 37a1 6f3d
00000070: 9651 b63c 20cf 60be e375 81bc 1776 35be
00000080: 715a 8bbe 0e0c 303e b030 61be 9506 e8bd
00000090: 05cb 253e 0e02 3cbe 2f8a 723c 512a 8cbd

critic.mlp.2.weight f4 [1, 40]
-0.32696268 0.1552646 -0.10988412 -0.1588946 -0.0014228388 -0.04039059 -0.24356413 0.29421327
-0.020367995 0.5039195 -0.40874562 -0.18838252 -0.35119593 -0.1769233 -0.35282224 -0.18881445
-0.20663665 -0.1423128 -0.20620748 -0.20736 -0.3433569 1.5352734 0.3635438 -0.7145369
-0.02075351 0.056360397 0.26374763 -0.37459144 0.10653015 0.48631275 0.18213627 -0.4183979
-0.016760496 -0.17438416 -0.4722829 -0.31815693 -0.56254804 0.07994979 0.079514556 -0.044902273
00000000: a767 a7be affd 1e3e ed0a e1bd 44b5 22be
00000010: 8c7e baba 9a70 25bd e068 79be 1fa3 963e
00000020: c8da a6bc de00 013f 1b47 d1be 59e7 40be
00000030: f4cf b3be 622b 35be 1ea5 b4be 9358 41be
00000040: 8f98 53be 72ba 11be 0e28 53be 2e56 54be
00000050: 7acc afbe d783 c43f 6a22 ba3e e4eb 36bf
00000060: 4403 aabc 29da 663d ee09 873e 73ca bfbe
00000070: 7b2c da3d fcfd f83e ee81 3a3e 4038 d6be
00000080: 4f4d 89bc c391 32be 10cf f1be 77e5 a2be
00000090: 2603 10bf b7bc a33d 87d8 a23d 72eb 37bd
