nudge/ppo_checkpoints/Freeway-v4_s0_step92K_critic.pth (torch, 3047 bytes, 1 tensors)

weight f4 [1, 512]
0	0xbd6dbf5b	-0.05804382
1	0x3cc12194	0.023575582
2	0x3d30de7d	0.04318093
3	0xbc7c3bc8	-0.015395112
4	0x3dc52850	0.096268296
5	0xbbdaa374	-0.006672317
6	0xbc8fedf1	-0.017569514
7	0x3d148443	0.036258947
8	0xbd7f2597	-0.062291708
9	0xbc49ca5f	-0.012316315
10	0x3be5074c	0.0069893952
11	0x3bd6a481	0.006550372
12	0x3cbfa0b3	0.023392057
13	0xbb9fa122	-0.0048715034
14	0xbd9140ff	-0.07092475
15	0xbbccb10e	-0.0062466925
16	0xbd80e46a	-0.062935665
17	0x3cd33352	0.025781307
18	0x3d569f8c	0.05239825
19	0xbc719955	-0.01474603
20	0x3cf5e3d2	0.03001586
21	0x3d3edd7e	0.04659795
22	0x3c6d49b5	0.014482905
23	0x3d835b67	0.06413918
24	0xbd948ec8	-0.07253796
25	0x3d4ffa61	0.05077589
26	0xbd221cb3	-0.03957815
27	0x3cc73df7	0.02432154
28	0xbb06db06	-0.0020577325
29	0x3d3ff298	0.046862215
30	0xbdab4437	-0.0836262
31	0x3d1dca81	0.0385232
32	0x3b59706c	0.003317858
33	0x3d03cc5a	0.032177307
34	0x3d13f2b6	0.03612014
35	0x3d43dc00	0.04781723
36	0xbcb8d6c2	-0.022563342
37	0x3d228c59	0.039684627
38	0x3bec0dd7	0.0072037983
39	0x39f77d4c	0.00047204865
40	0xbbcfd746	-0.0063428013
41	0x3d33f535	0.04393502
42	0xbcba0ad6	-0.022710245
43	0xbd281b05	-0.041041393
44	0xbc6926aa	-0.01423041
45	0xbcab7a3d	-0.020932311
46	0xbd2cdf9b	-0.042205434
47	0xbd143b58	-0.036189407
48	0x3cd36688	0.025805727
49	0xbbe43a09	-0.006964926
50	0x3ca3144c	0.01990714
51	0x3d621c85	0.05520298
52	0xbd39d72f	-0.04537123
53	0xbc447abe	-0.011992155
54	0xbd0434cf	-0.032276925
55	0x3d78a8ba	0.060707785
56	0x3ca51b2c	0.020154558
57	0x3cf87562	0.03032941
58	0x3cc30c8f	0.0238097
59	0x3d186d45	0.037213583
60	0xbc44c0b0	-0.012008831
61	0x3d327fa9	0.043578777
62	0x3b578fd9	0.0032892136
63	0x3d1f4e0d	0.038892794
64	0x3d14b84d	0.036308575
65	0xbcd1e328	-0.025621012
66	0xbd4914db	-0.049092155
67	0xbc9a24f3	-0.018816447
68	0x3cadd8e6	0.02122159
69	0x3bed1e6a	0.0072362917
70	0x3d8a72e3	0.06760194
71	0xbd54fdc7	-0.051999833
72	0x3d08bac8	0.033381253
73	0xbda5fb16	-0.081045315
74	0xbc85ed9b	-0.01634865
75	0xbd6de8bb	-0.058083277
76	0x3d947f14	0.07250801
77	0x3cbc0d74	0.022955634
78	0xbbc33831	-0.0059576263
79	0x3c895149	0.016762393
80	0xbce6af3d	-0.028159732
81	0xbc3e00db	-0.011596884
82	0x3cce8a80	0.025212526
83	0xbd2323a1	-0.0398289
84	0xbc9fb9af	-0.01949772
85	0x3d611fd5	0.054961998
86	0x3d3a90d3	0.04554827
87	0x3c086a91	0.008326189
88	0x3c2a797b	0.01040494
89	0x3c8568c8	0.016285315
90	0x3d1d6be6	0.038432978
91	0xbc17165a	-0.009221638
92	0xbd71a00e	-0.05899053
93	0xbd5e3480	-0.054249287
94	0xbd8fd1bf	-0.07022428
95	0x3da08f1b	0.07839795
96	0xbd0f23b9	-0.034946177
97	0xbd1b5911	-0.037926737
98	0x3cc348d4	0.023838438
99	0x3cfd1d5f	0.030897794
100	0xbd6d9f4f	-0.058013257
101	0xbd2fe4f3	-0.042942952
102	0x3d99f389	0.07517154
103	0xbda0dcad	-0.078545906
104	0x3c5efebd	0.013610539
105	0x3c1bf826	0.009519612
106	0xbd1a839f	-0.03772318
107	0xbd37692f	-0.044778045
108	0xbd5b82b4	-0.053591445
109	0x3d047af2	0.032343812
110	0xbce6403b	-0.0281068
111	0xbd2cb968	-0.042169005
112	0x3bc623ef	0.006046764
113	0x3c9194c7	0.017771138
114	0x3d5e06e8	0.054205805
115	0xba93de56	-0.0011281471
116	0xbd3b8774	-0.045783475
117	0x3d018745	0.031623144
118	0x3d5eff8c	0.054442927
119	0xbdda81ec	-0.10669312
120	0x3d37a0aa	0.044830956
121	0xbd9a4a07	-0.07533651
122	0xbcfcc374	-0.030854918
123	0x3b303cdb	0.0026891741
124	0xbd9074d6	-0.07053535
125	0x3cda2da2	0.026633088
126	0x3d25e63a	0.040502764
127	0x3cdb2c6f	0.026754586
128	0xbd0e4f3d	-0.034743536
129	0xbc594371	-0.013260708
130	0xbd4d241b	-0.05008326
131	0xbc75be69	-0.014999011
132	0xbcc1a116	-0.023636382
133	0x3d3dbc5a	0.046322204
134	0x3b436b92	0.0029818756
135	0xbd588234	-0.052858546
136	0xbd0cfad4	-0.034418896
137	0xba1de939	-0.00060238276
138	0xbce9a82e	-0.028522577
139	0xbcb59575	-0.022165993
140	0x3cb18e1c	0.021674208
141	0x3cb7e194	0.022446431
142	0xbce600fe	-0.028076645
143	0x3d2e07f3	0.04248805
144	0xbd79b783	-0.060966026
145	0xbca39806	-0.019969951
146	0xbd0f6227	-0.035005715
147	0x3c472f7b	0.012157316
148	0xbc99c42f	-0.018770305
149	0x3b16b105	0.0022993695
150	0x3c3072da	0.01076957
151	0x3d34f126	0.04417529
152	0x3a9a12f0	0.0011754911
153	0x3b0c4b46	0.002140717
154	0x3bdc9645	0.0067317807
155	0xbc088135	-0.008331587
156	0xbd82c80e	-0.06385814
157	0x3b2cfed7	0.0026397014
158	0xbd8dc9a9	-0.06923229
159	0x3bfbdc43	0.0076861694
160	0xbc8bc66b	-0.017062386
161	0xbd0b8b07	-0.034068134
162	0xbd99ba67	-0.075062566
163	0x3caf9d07	0.021437181
164	0xbd845631	-0.06461752
165	0x3d3cd117	0.04609784
166	0x3d33b304	0.043871894
167	0x3c504158	0.012710892
168	0x3d187f3c	0.037230715
169	0x3c8a5d91	0.016890319
170	0xbc95bca6	-0.018278431
171	0x3d1bbc90	0.038021624
172	0xbbcd739f	-0.0062698866
173	0x3cc5a3fd	0.024126047
174	0xbd7a7282	-0.06114436
175	0x3cd93932	0.02651653
176	0xbd9e4d5c	-0.07729599
177	0x3c01c834	0.007921267
178	0xbbd31e1f	-0.0064427997
179	0xbca30b63	-0.01990289
180	0xbd8ebe3e	-0.069698796
181	0x3cea57dd	0.02860635
182	0x3d8030f3	0.06259336
183	0x3c0be80b	0.00853921
184	0xbccc59de	-0.024945196
185	0xbad316f5	-0.0016104864
186	0x3d1a4781	0.037665848
187	0x3acc77bf	0.0015599652
188	0xbd538c57	-0.05164751
189	0xbcb7a4d1	-0.022417458
190	0x3d818219	0.06323642
191	0xbd07f9ab	-0.033197086
192	0x3c581917	0.013189576
193	0x3d3700c0	0.04467845
194	0x3d3bd124	0.04585375
195	0xbda6647e	-0.08124636
196	0x3d2f20a0	0.042755723
197	0xbcc684b7	-0.024233205
198	0x3c6560c2	0.01400012
199	0xbd5d0d47	-0.05396774
200	0x3ca9e307	0.020738138
201	0x3ca965f7	0.020678503
202	0xbbf27a6c	-0.0073998477
203	0xbcde882a	-0.027164537
204	0x3c7d33ac	0.015454214
205	0x3b1e308e	0.0024137828
206	0x3ce17f50	0.027526528
207	0xbc14da45	-0.009085243
208	0xbc1b5458	-0.009480558
209	0x3d02a9af	0.031900104
210	0x3c088b41	0.008333982
211	0xbb57b7fa	-0.0032916055
212	0xbd8b37f5	-0.06797782
213	0x3d37bfaf	0.044860538
214	0xbd915eab	-0.070981346
215	0x3c423e16	0.011855623
216	0x3d577c8e	0.05260902
217	0xbc7094fe	-0.01468396
218	0x3cf478fb	0.029842844
219	0xba2dd333	-0.00066308974
220	0xbd04ccf1	-0.03242201
221	0xbe1381e8	-0.14405024
222	0x3d95d4ae	0.07315956
223	0x3ce0482d	0.027378166
224	0x3962938f	0.0002160801
225	0x3d60acf7	0.054852452
226	0x3d7aea72	0.06125874
227	0xbbe7bf44	-0.007072361
228	0x3caf47e6	0.021396589
229	0x3d676523	0.056492936
230	0xbd578077	-0.052612748
231	0xbd2ee15b	-0.042695384
232	0xbc99d874	-0.01877997
233	0x3c54e46a	0.012993911
234	0xbce0dd7b	-0.02744936
235	0x3c5e6254	0.013573248
236	0x3cb6dfbd	0.022323484
237	0x3ce2380d	0.027614618
238	0x3cee3111	0.029076131
239	0x3babd928	0.005244393
240	0xbd89b723	-0.06724384
241	0xbb014ef8	-0.0019730907
242	0x3d66f1b1	0.05638284
243	0x3c9f9a17	0.019482655
244	0x3ca7f4db	0.020502498
245	0x3d91bd04	0.0711613
246	0xbc436f94	-0.011928458
247	0x3cd25128	0.025673464
248	0xbc850856	-0.016239326
249	0x3ca01c1d	0.019544655
250	0xbc6fc20c	-0.014633667
251	0xbd216c7a	-0.039410092
252	0xbd4ffae8	-0.050776392
253	0x3c446952	0.011988001
254	0xbd21b2f1	-0.039477292
255	0xbc26ef2b	-0.010188858
