src/models/bigfish/ppo/ppo_.pth (torch, 3855 bytes, 7 tensors)

actor.mlp.0.weight f4 [10, 9]
000000 aa 54 4c bd c9 ad 27 3e 96 9d b8 be 7d 96 91 be
       -0.04988543 0.16374888 -0.3605773 -0.28435126
000010 89 07 49 be ee 09 47 bd 29 2c 0b be 41 dd f2 3d
       -0.1963178 -0.048593454 -0.13591065 0.11858607
000020 e6 0c 0f be 94 a3 00 3e 69 1a 9d bc a3 24 b3 3e
       -0.13969764 0.125624 -0.019177632 0.3498889
000030 cf 71 d9 bc 74 9c a5 be 63 42 96 3e 6f f1 0a 3e
       -0.026543526 -0.32345927 0.29347524 0.13568662
000040 b9 68 fc 3e 85 76 11 3f 43 69 87 be 7d e1 be be
       0.49298647 0.5682147 -0.26447496 -0.3728141
000050 8b 3d 4a 3d bb ca 58 3e 37 c0 28 be cc aa 1d 3e
       0.0493751 0.21171086 -0.16479574 0.15397185
000060 92 14 18 be 2d af 33 3d b9 f1 85 3e de d0 a7 3c
       -0.14851597 0.043868233 0.26160982 0.020485338
000070 8a 69 95 bc c0 62 f2 3e ed ba d3 bc 01 65 ee 3e
       -0.018238802 0.47340965 -0.02584597 0.46561435
000080 f4 5b b4 3e 49 af a2 be aa 7d 34 bc 40 91 e6 3d
       0.35226405 -0.31774357 -0.011016289 0.11258173
000090 66 03 7c be 21 eb 48 3e 8a 91 b8 3d f1 f8 cc 3d
       -0.24610671 0.19620945 0.090121344 0.10008419
0000a0 72 4b 83 bd e9 89 69 be e4 08 13 bc 36 1a ba be
       -0.064108744 -0.22806515 -0.008974288 -0.36348122
0000b0 97 3d 9c be 55 a4 ef bd 06 a3 41 3e 8d c5 47 3e
       -0.3051574 -0.11701266 0.18909845 0.19508953
0000c0 60 3e f7 bd a5 7b 62 be b2 76 3d 3e da cf 9b 3e
       -0.12072444 -0.22117479 0.1850231 0.30432016
0000d0 7c 31 63 bc da d8 31 3d 99 98 e9 3d d4 e2 9e be
       -0.013866778 0.043419696 0.11406059 -0.3103243
0000e0 cd a3 54 bd 97 aa a7 be 62 6d ab be e9 69 87 be
       -0.051914025 -0.32747337 -0.3348189 -0.2644799
0000f0 63 59 f0 3c 3e 71 1d 3c d5 5f a0 be c8 28 28 bd
       0.029339498 0.009609519 -0.31323114 -0.041054517
000100 9c 7b e7 3d 90 18 49 be 6e 98 e2 bd 84 9b 5f bd
       0.113028735 -0.19638276 -0.1106423 -0.05459167
000110 5a bc ad 3d 3d 61 46 3e 6a 57 83 be 53 ca 91 be
       0.08483191 0.19373031 -0.2565263 -0.28474674
000120 0c 1f 1b 3e 8e 62 9a 3e b5 cf 08 3f 34 1d c8 3e
       0.15148562 0.30153316 0.53441936 0.3908478
000130 e2 8f 83 be 7e ef 31 bd 14 9d 06 3e 4a ef 33 bd
       -0.2569571 -0.04344129 0.13145858 -0.043929376
000140 b0 ab 07 be d4 34 ea 3c 46 1b 8e 3c e9 07 d7 be
       -0.13249087 0.028589644 0.01734699 -0.41998222
000150 8f 31 76 bd 7f f9 7d be 54 79 c3 bd ab 4b 1c be
       -0.060105857 -0.24802206 -0.09544626 -0.1526324
000160 69 7d 0e 3e d8 3b 81 be
       0.13915028 -0.2524097

actor.mlp.0.bias f4 [10]
000000 b0 96 8b 3c b6 7e 0c 3f 0f d4 44 3e b1 53 21 3f
       0.017039627 0.54880846 0.19221519 0.6301833
000010 a9 19 c8 be 4c ea 65 be 1f 0a 62 3d 55 f2 b8 bd
       -0.39082077 -0.22452658 0.055185433 -0.09030596
000020 84 09 4c bd 3d 1f 96 be
       -0.049813762 -0.29320708

actor.mlp.2.weight f4 [5, 10]
000000 9d 0c 44 3e 7d e7 9f 3e c6 d1 2e 3d 64 11 9a 3e
       0.19145437 0.312313 0.042680524 0.30091393
000010 2b 7d 82 be a4 27 07 3d a9 a6 13 be 57 e4 fd bd
       -0.2548612 0.03299679 -0.14419045 -0.12397068
000020 49 0f 02 bc ea f1 6d 3c 99 b8 b8 3d ab 60 a8 3e
       -0.007938215 0.014523009 0.09019584 0.32886252
000030 22 e2 e2 bd ec 70 cc 3e 47 f9 31 3e 2e 89 4b be
       -0.11078288 0.39929903 0.17380248 -0.19876549
000040 2a 1d 9d bd b8 14 ba bd 22 d3 1e 3d a1 9a 29 3e
       -0.07671578 -0.09085983 0.03877557 0.16562892
000050 c2 d2 99 3e 4c 1f 90 3e e5 d4 76 bd 82 4a 7b 3e
       0.30043608 0.28148878 -0.060261626 0.24540141
000060 e8 60 46 be 17 bc 2f bd 80 e7 d6 3c e2 1e 61 bc
       -0.19372904 -0.042903986 0.026233435 -0.013740273
000070 a6 da a5 3d 1d bc 06 bd 01 92 5c be e2 88 a9 be
       0.080983445 -0.032894243 -0.21540071 -0.33112246
000080 08 29 c2 be d8 83 07 bf 0e 65 52 3e d8 49 07 be
       -0.3792193 -0.5293555 0.20546362 -0.13211763
000090 ce e0 fd bc 7a 29 b7 bd 87 2e 8e bc 5f 9a c7 3d
       -0.030990984 -0.08943458 -0.01735617 0.09746241
0000a0 45 65 28 3e 7a d0 98 bd c0 df 4f 3e f2 8b 0c be
       0.16444881 -0.07461639 0.20300198 -0.1372526
0000b0 0b fc ac be da cf 7d be c4 b7 14 3e e5 b1 50 bd
       -0.33786044 -0.2478632 0.14523226 -0.050950903
0000c0 4d 66 a1 be aa c1 b4 be
       -0.31523362 -0.35304004

actor.mlp.2.bias f4 [5]
000000 87 67 2d be e6 68 56 bd 92 ae 1b 3c 6c fd 2a 3d
       -0.16934024 -0.052346133 0.00950207 0.04174559
000010 3f 71 b6 3b
       0.005567699

critic.mlp.0.weight f4 [10, 9]
000000 ac 98 a4 be ea ea 54 3e 5c 8c 85 be a0 52 90 bd
       -0.3214773 0.20792738 -0.26083648 -0.070470095
000010 be 66 0a be f4 7d 83 bd 60 09 86 bd d2 25 99 be
       -0.13515756 -0.06420508 -0.06544757 -0.29911667
000020 2e 5c 93 be 4c 5d 0a bc 6f 9d 28 3d 58 1d b6 bd
       -0.28781265 -0.008445095 0.041165765 -0.088923156
000030 b4 2b 02 3e 02 fe 36 be 79 21 2d 3d fa d2 95 3e
       0.12711984 -0.17870334 0.04226825 0.29262525
000040 a7 9b 23 be dc 03 c3 3e 7a 5b 4d 3e a2 87 16 be
       -0.15977345 0.38088882 0.20054427 -0.14700177
000050 29 1e ed 3e d3 4e d5 3d 77 fc 2f be 4c ae 01 3f
       0.46312073 0.10415425 -0.17186151 0.5065658
000060 1e ee ae bd 94 b7 16 3e d2 0f 08 3e d1 2e 7f 3e
       -0.08541511 0.14718467 0.13287285 0.24920203
000070 a4 28 b1 3d 6f be 5b 3e 22 71 3a 3e a7 71 ea 3c
       0.0865033 0.21459363 0.18207219 0.028618647
000080 eb be 15 bc 92 33 87 be 7f 8a 19 3e e5 02 b1 3e
       -0.009139757 -0.26406533 0.14994238 0.3457252
000090 3a 99 35 3e 9e 7b 61 be 4d a6 5f 3e 36 e9 97 3b
       0.17734233 -0.22019812 0.21840782 0.004635955
0000a0 c3 90 8e 3d 66 5d a4 3d f6 6b 0b 3d a8 92 1c bf
       0.06961205 0.08025627 0.034038506 -0.6116128
0000b0 3f 6c 6d 3e 01 41 bb bd 85 c5 d4 3d 5a 38 ae be
       0.23185824 -0.09143258 0.10389236 -0.34027368
0000c0 93 cd 8a be 4c a3 5f be 0e 05 2b 3e e1 e8 12 be
       -0.27109966 -0.21839637 0.16701147 -0.14346649
0000d0 1d ef 4b 3e 46 7f 0e 3d 59 95 98 3d 70 29 b9 3d
       0.19915433 0.034789346 0.07450361 0.09041107
0000e0 c5 41 72 bd e4 1a 83 3d d7 28 3d be aa 71 59 bc
       -0.059144754 0.06401613 -0.1847261 -0.0132717285
0000f0 d2 85 1f 3e a8 c1 74 bd 43 62 53 be 90 43 70 3e
       0.15578392 -0.059754997 -0.20642953 0.23463273
000100 f2 ed 9a be e1 e5 4c bd ca 17 91 3e 2e d6 25 3d
       -0.30259663 -0.050023917 0.28338462 0.04048746
000110 7c 64 a6 bc b7 e5 95 be fc 58 34 3e a6 53 90 be
       -0.020311587 -0.2927682 0.1761207 -0.2818882
000120 42 6f 7c bd a2 26 a7 bd 65 c1 cf bd fc e0 05 3b
       -0.06162954 -0.081616655 -0.10144309 0.002042829
000130 b1 59 2a 3e 7c b4 0f bc cd 01 96 3e 19 31 44 3e
       0.16635777 -0.008771058 0.2929825 0.19159354
000140 17 23 8a be 56 54 98 3d a3 3e 9c be 7c 43 33 be
       -0.26979896 0.07437961 -0.30516538 -0.17506212
000150 35 bd 35 3d 01 a1 5d 3d da 65 60 3e 3e 15 1c be
       0.044369895 0.054108623 0.21913853 -0.15242478
000160 bf df 04 bd d4 1e 05 3e
       -0.032439943 0.13000041

critic.mlp.0.bias f4 [10]
000000 e7 0c a5 be 7f 31 9f 3e 55 a5 4a bd c5 61 8c 3d
       -0.32236406 0.3109245 -0.04947408 0.068545856
000010 22 b5 02 3e 84 f2 87 be ab 4d 1e 3d c3 d4 77 3e
       0.12764409 -0.26552212 0.03864829 0.24202256
000020 a0 97 1e be 0c 3c 71 be
       -0.15487528 -0.23558062

critic.mlp.2.weight f4 [1, 10]
000000 38 85 ef bd 82 8c 7a be 36 0d 79 3e 71 b3 46 be
       -0.11695331 -0.24467662 0.24321446 -0.19404389
000010 a9 a9 b6 be 98 a5 ad bd 4c 19 8d 3e 4e 08 e1 3d
       -0.35676315 -0.0847885 0.27558362 0.10987912
000020 a7 0a 34 3e 5c ca 90 3d
       0.17582189 0.07069847
