src/models/getout/logic/getout_bs_top3.pth (torch, 12443 bytes, 4 tensors)

actor.im.W f4 [5, 15]
00000000: e2f7 df3f 798d c53e 2594 873f e59a 3c40
00000010: 2db6 2440 74fb fabf d18a 183f 13ba 8fbd
00000020: 92c1 063f c2f6 cf3d 7ef7 28be 8981 2a3f
00000030: 6300 9c3e 1919 333e af99 afbd 5e0a 603f
00000040: c046 0240 608f bf3e f5e2 ab3f 27d6 333e
00000050: 23f1 02c0 530c d63e 444f e73f 2c5e 063f
00000060: 48e5 3940 27d2 51bf 21f8 90be 869c 00c0
00000070: d00c 3f40 35d0 3c3f 8666 b33d 2223 9f3e
00000080: 1bde 69bf 73e9 28c0 38d2 80bf 06e7 3ebf
00000090: 9ebc b63e 301c c63d 0979 8b3f a903 99be
000000a0: 31c6 85bf 24c9 b4bf 467c d1be 0ce8 2c40
000000b0: 3ffc 71bf cf1c e2bf cc31 25c0 6482 1d40
000000c0: b27b d1bf 2f17 71be c888 bebf 2537 0bbf
000000d0: e009 6abe e438 83be b83a a5bd 246d c03e
000000e0: 838c 30bf 534f f0be b01d e4be 0d92 fbbf
000000f0: 5bed 32be 227e 0d3e 24a3 9abe 1238 b2bf
00000100: c7eb 023f 4d81 68bf d395 75c0 6237 d13f
00000110: c392 433d f04e ec3f 067e 2140 f337 59bf
00000120: 9b26 dcbd 0f77 3ebf b2e1 7abf
1.7497523 0.38584498 1.0592085 2.946954 2.5736191 -1.9607987 0.5958682 -0.07017913
0.52639115 0.10154487 -0.16500661 0.66603905 0.30469045 0.17490043 -0.08574235 0.8751582
2.0355682 0.37414074 1.3428637 0.17562161 -2.0459678 0.41806278 1.8071065 0.52487445
2.9046192 -0.8196129 -0.28314307 -2.0095534 2.985157 0.737552 0.08759789 0.31081492
-0.9135453 -2.6392486 -1.0064154 -0.74571264 0.35690778 0.09673345 1.0896312 -0.29885605
-1.0451108 -1.4123883 -0.40915126 2.701663 -0.9452552 -1.7665042 -2.5811644 2.4610834
-1.6365874 -0.23544 -1.4885492 -0.5438102 -0.2285533 -0.25629342 -0.0806784 0.37583268
-0.68964404 -0.4693552 -0.445539 -1.9653946 -0.17473356 0.13817647 -0.3020259 -1.3923361
0.5114102 -0.908223 -3.8372695 1.6345026 0.047747385 1.846159 2.5233169 -0.84850997
-0.10749551 -0.7440042 -0.98000634

critic.mlp.0.weight f4 [40, 60]
00000000: b15f 7dba 57d5 8d3d 74de 91bd 9aad 75bd
00000010: f8bc 70bc 9ecc 0d3d fa00 053d e346 bc3d
00000020: 27c7 47bd 0ed4 e4be 0538 89be 57e2 cfbc
00000030: 0a97 fcbd c21a afbd e1fa 59bd e1b4 9c3b
00000040: c10c 513d b7a4 9e3d a33e b3bd db44 66bd
00000050: e910 403d 0c8d db3d 94a6 d9bc b3d9 c53d
00000060: f876 aabc 77d0 5f3c 6b67 ef3d a345 f5bd
00000070: 7572 a6bd 20df 05bd 721f 4ebd 2570 e43d
00000080: 3a60 abbd b5e0 c7bc 5602 af3c b3e1 afbd
00000090: 64c8 8ebe 2446 e33d d7f4 6b3d 3425 803d
000000a0: cd7a de3b 228d 87bd eaf1 683d 32be 9ebe
000000b0: 049b 6ebd cc4d 88bd 37d1 a63d 5205 9b3d
000000c0: 2e84 6abd f3a3 98bb da18 a93d 4c93 8b3e
000000d0: 1978 313b 2e96 253e 1046 b13d 42ad 9bbd
000000e0: ff12 c53c c7fc ccbd bc3f b7bd 1c95 88bd
000000f0: 8a43 6f3d b0a8 543d 8d9d 9cbd 6ac0 1f3d
00000100: 5425 913d 3c7c 85bc 4385 a13b 000c f53c
00000110: 5e06 a43d 04df fd3d e1bf cbbd 38c9 41bd
00000120: fad1 4f3d 9b10 db3d 3c14 e63d 934a e93d
00000130: 6e79 d23c f4e9 e5bd 4f94 423c 4768 a5bd
00000140: 9667 f6bd dfe9 ea3d 2c09 c93d fcde 03be
00000150: 2ef3 c53c 0f29 b2bc 7a09 aebc d00e 72bd
00000160: 9759 4b3d 3c9a 9cbd aed9 413d 00b5 853d
00000170: f945 bd3d 91b8 453d 42d7 02be 3d83 abbd
00000180: 4804 843d 7d5a dd3c 3640 cebd 823e 98bd
00000190: e3ba f83d 8f27 b23d fa90 66bd b716 05bd
000001a0: e1dc fbbd b612 18bb 031b c7bd 80f1 cbbd
000001b0: ed16 e9bb 72ca 9e3c 5a8e 58bd efe2 9c3d
000001c0: 25e5 a0bd 9be7 ef3d b830 b53d d9f5 debd
000001d0: 9d9b 03bd 34e2 be3b 6e4d 9a3c d6d4 fa3c
000001e0: 3e83 4f3d c265 fd3b dd2c 87bd b1e1 6d3d
000001f0: 28e5 01be 86b5 9cbd 79b5 10bd 0cf5 86bd
00000200: d23b 45bd a7d6 debd 3a72 c8bc ab10 e23c
00000210: a63e acbd 0d19 d9bb 9244 bd3d 8470 59bc
00000220: f923 6b3b 1679 36bc f708 d63c fa1c a83d
00000230: a272 fa3d f1e7 a73d 5405 fb3d e5f8 18bc
00000240: 2783 edbd 1cb0 7abd 4407 b43d 6462 5bba
00000250: ba6a 83bd 099c cabd 6b6f f7bd f126 dfbd
00000260: 4284 d6bc c6d3 8a3d d3c5 883d 8394 02be
00000270: 60ab 9e3d 61e4 cebd 7795 dfbc 1169 56bd
00000280: e2b4 cbbc 0da6 cfbc a46c f3bd 4d75 eabd
00000290: 332a bebc 61d4 da3a 7437 70bd fd31 473d
000002a0: b6f8 edbd 26bf 0ebc c283 e83d 1307 64bd
000002b0: c094 e83d 962a 333d 549b eebd 4d48 a73d
000002c0: 1114 74bc 5a0e 6cbd c46c d33d 29a8 d5bd
000002d0: b9f7 623c ba6c ddbc 5ff0 3f3d a245 18bc
000002e0: 4ad1 883c 55bf 3a3d 8e6b 9cbd 278b 00be
000002f0: 2a47 073c 68b2 4dbd eee1 7abb f5e7 b43d
00000300: bc7f babd 1bac bc3b ab61 babd ae8b 91bd
00000310: 9710 9abd 39b6 343d 8e8e 9dbd 8796 38bb
00000320: 4af6 b13b 7f6f aa3d abdc c7bd c782 b5bd
00000330: 3e86 99bd 320f b93d fc14 3ebd c703 df3d
00000340: 0637 3f3d e0ea 853c ebec 7bba 8810 d1bc
00000350: e7b0 843c 7436 99bd b8ea 6f3d 4d6a ecbc
00000360: 470e 383e fd93 8abd 617f d53d c691 d6bd
00000370: c8e1 17bc 74c6 023e bdea aa3a 181f be3d
00000380: b8fb 20be ccf9 823d ee52 bcbd de1a 16bd
00000390: 0a6b 31bd 599d 9cbc 1c17 b93a 0948 1e3e
000003a0: 4d74 49bd f2a6 273e efbb a13d 9527 a7bd
000003b0: 422a 6d3d 77e6 babd 741d 60bd 8f87 1b3d
000003c0: 4b9a 2e3d 675b c63d eaea 66bd 7f60 6fbc
000003d0: 018b 533d eab1 ffbd d5ce a03d 38ef 2bbe
000003e0: 5f63 303e 7a30 99be 8741 88bd 24c8 8b3c
000003f0: 3ca2 da3d 7793 1abd 5bf8 9cbd 4c91 43bd
-0.0009665443 0.06925457 -0.07122508 -0.059980012 -0.014693491 0.034618966 0.032471634 0.09193208
-0.04877391 -0.44693035 -0.26800552 -0.025376482 -0.12333496 -0.085500255 -0.053217772 0.0047823046
0.051037554 0.077462606 -0.087521814 -0.05621801 0.046891127 0.10720262 -0.026568688 0.096606635
-0.020808682 0.013660542 0.11689647 -0.11976173 -0.081273 -0.03268349 -0.050322957 0.11154202
-0.08367963 -0.02439914 0.021363419 -0.085879706 -0.2788726 0.11097363 0.057606544 0.06257096
0.0067895413 -0.06618716 0.056871332 -0.31004483 -0.058253303 -0.066554636 0.08145373 0.07569374
-0.057254963 -0.004658216 0.08256693 0.27260816 0.002707964 0.1617057 0.086559415 -0.07601406
0.02405691 -0.10009151 -0.08947703 -0.06669065 0.05841402 0.051918685 -0.07647238 0.03900186
0.07087198 -0.016294591 0.004929216 0.029912949 0.08009027 0.123960525 -0.09948707 -0.047311038
0.05073736 0.106965266 0.11234328 0.11391177 0.025692668 -0.11226264 0.01187618 -0.0807653
-0.12031476 0.114703886 0.098162025 -0.1287803 0.024163809 -0.021748094 -0.021244753 -0.059096158
0.049645986 -0.07646605 0.047326736 0.06528664 0.09241862 0.04827172 -0.12777427 -0.08374641
0.06446129 0.027020687 -0.10070841 -0.074337974 0.12145021 0.086989515 -0.056290604 -0.032492366
-0.12297989 -0.0023204512 -0.09721949 -0.09958172 -0.0071133287 0.019383643 -0.052870132 0.07660472
-0.07856206 0.11714097 0.08847183 -0.108867355 -0.032130826 0.0058253054 0.01883575 0.030619066
0.05066227 0.0077330777 -0.06600354 0.058076564 -0.12685072 -0.0765181 -0.035329316 -0.06589708
-0.048152752 -0.108807854 -0.02446853 0.027595839 -0.08410387 -0.0066253007 0.092415944 -0.013271455
0.0035879596 -0.011137268 0.026127322 0.08208652 0.12228896 0.08198536 0.12256876 -0.009336685
-0.11597281 -0.061203107 0.08790448 -0.00083688484 -0.06416841 -0.098930426 -0.12081798 -0.10896099
-0.026186112 0.06778674 0.06678357 -0.12751965 0.07747531 -0.101021536 -0.02729295 -0.052346293
-0.024866525 -0.025347734 -0.11885956 -0.114481546 -0.023213482 0.0016695374 -0.058646634 0.048631657
-0.116197035 -0.0087125655 0.11353256 -0.05567081 0.11356497 0.043741785 -0.1165072 0.08168087
-0.014897362 -0.057630874 0.1032348 -0.10432465 0.013853007 -0.027029384 0.046860095 -0.0092939455
0.01670136 0.045592625 -0.07637702 -0.12553082 0.008256713 -0.05021897 -0.0038281637 0.08833305
-0.09106395 0.0057578213 -0.0910066 -0.0710672 -0.075226955 0.044119094 -0.07693206 -0.0028165893
0.0054309713 0.083220474 -0.09758886 -0.088628344 -0.07496308 0.090361014 -0.04640673 0.10889392
0.046683334 0.016347349 -0.00096101937 -0.025520578 0.016197635 -0.07481089 0.058573455 -0.028859282
0.17974196 -0.06766508 0.10424686 -0.10477023 -0.009270139 0.12771016 0.0013039928 0.092832744
-0.15721023 0.06395301 -0.09195505 -0.036646716 -0.04331497 -0.019117998 0.0014121267 0.15457167
-0.04918318 0.16372278 0.078971736 -0.081618465 0.05790163 -0.09125989 -0.05471559 0.037971076
0.042627614 0.09685402 -0.056376375 -0.014610409 0.051646236 -0.12485106 0.0785195 -0.16790473
0.17225407 -0.29919797 -0.06653123 0.017063208 0.10675475 -0.03773829 -0.076645575 -0.047745988

critic.mlp.0.bias f4 [40]
00000000: 229d 233e aa4d 0d3a 8d2e a5bd d839 ed3c
00000010: 7ed6 2abd fa6c 9ebd 8299 bdbd 1d9a 11be
00000020: 0d53 97bd 5d40 68bc f20f 8bbd 8023 1d3e
00000030: 18e5 bbbc 2a70 4abd d046 843d aced 0bbe
00000040: ce92 ccbd 7e55 4ebc 2d3b 02be 6add 723d
00000050: c2b2 7abc dd9f 44be 72e7 08be 00de b13c
00000060: af18 533d 5afb 3bbd 56cc 0cbe 84da f1bd
00000070: d227 383c d1a9 823c be5b 073d 9fce 4ebb
00000080: 3e04 59bd 9900 863d a864 153e 771e 8b3d
00000090: ea54 f13d 8d7f dfbd f3a5 ebbc a7f0 69bc
0.1597791 0.0005390296 -0.080655195 0.028958246 -0.041708462 -0.077356294 -0.09257795 -0.14218946
-0.073888876 -0.014175502 -0.06790151 0.15345573 -0.022936389 -0.049423374 0.06458819 -0.13664883
-0.09988938 -0.012593625 -0.12717886 0.05929319 -0.015301408 -0.19201608 -0.1336954 0.021712303
0.051537212 -0.045894004 -0.13749823 -0.11809257 0.011239963 0.015950115 0.033046477 -0.0031556261
-0.05298256 0.06543083 0.14589179 0.0679292 0.11783774 -0.10913 -0.028765654 -0.014278567

critic.mlp.2.weight f4 [1, 40]
00000000: 6cf7 0c3e 0713 833d 51b8 3abc 7837 83bd
00000010: a389 90be ac8d d23d 3f38 8dbd 73bc 5fbe
00000020: e95f adbe 1c89 a0bd a346 b53b b398 473e
00000030: d888 05bf 5460 6ebd d7f4 963d 0e2d adbd
00000040: 2942 b1be b839 603b d974 0c3e f021 f63c
00000050: 22d0 85bb ec19 4b3b 4737 c03d 068f 6dbe
00000060: aba6 c93d 3d8d 993b 8c65 243f b34c 9ebb
00000070: 4807 d4bd 0ae0 773e 4512 aa3d 80ae f0bd
00000080: 799f 9ebd a178 a73d 72c8 c43d a9f0 73be
00000090: bb24 983e 74a2 8ebe 92a3 4bbe 7371 8e3d
0.13766259 0.064001136 -0.0113964835 -0.06407064 -0.28230008 0.10280928 -0.06895494 -0.21849231
-0.33862236 -0.078386515 0.005532102 0.19491844 -0.5216193 -0.058197334 0.07370918 -0.08455859
-0.3462079 0.003421409 0.13716449 0.03004548 -0.0040836493 0.0030990792 0.09385543 -0.2319909
0.098462425 0.0046860264 0.6421745 -0.0048309206 -0.10352951 0.24206558 0.08304266 -0.11752033
-0.07745261 0.08177305 0.096085444 -0.23822273 0.29715523 -0.27858317 -0.19886616 0.069552325
