src/models/heist/logic/old_beam_search_top1.pth (torch, 6171 bytes, 4 tensors)

actor.im.W f4 [8, 8]
0.39577106 -0.12368015 0.6144169 1.1822617 2.7502367 -1.2641511 0.30682698 -0.4439796
-2.5200768 -1.5667433 -1.3408419 -0.7359881 -2.3119802 -1.8887215 2.8652074 -1.6093227
0.779527 -0.6381981 1.3113503 -1.3809284 -3.1862843 0.014975971 1.2813286 -1.2841935
2.629693 -1.7328943 -0.21312605 -0.52098113 1.100971 1.1527774 -0.15279315 0.08209918
-3.7302272 -4.702657 -2.8817635 -2.6358144 -1.5851322 4.694209 -3.304687 -3.1123312
-0.55817217 -0.9055959 -1.1897813 1.4563762 -0.0884788 0.08089274 -0.7537585 1.283354
-4.4194975 -2.818519 -3.3049724 -2.307122 -3.8244255 -4.0606985 -3.0283918 3.2893293
-0.68703127 1.0406348 -1.3007009 -1.0974867 -1.4388617 -1.0373253 -1.5085554 -2.400354
00000000: 81a2 ca3e 054c fdbd 6d4a 1d3f 5a54 973f
00000010: e103 3040 b4cf a1bf 6d18 9d3e 4b51 e3be
00000020: f048 21c0 0b8b c8bf b5a0 abbf b769 3cbf
00000030: 7cf7 13c0 a0c1 f1bf 8f5f 3740 49fe cdbf
00000040: 158f 473f f360 23bf 54da a73f 43c2 b0bf
00000050: 15ec 4bc0 c65d 753c 9302 a43f 7460 a4bf
00000060: e44c 2840 7bcf ddbf b73d 5abe 055f 05bf
00000070: 9eec 8c3f 368e 933f cf75 1cbe 9d23 a83d
00000080: 0bbc 6ec0 2b7c 96c0 d06e 38c0 2fb1 28c0
00000090: 9de5 cabf f636 9640 fe7f 53c0 6f30 47c0
000000a0: 5fe4 0ebf 22d5 67bf c14a 98bf 896a ba3f
000000b0: 6034 b5bd 18ab a53d 51f6 40bf f244 a43f
000000c0: 866c 8dc0 9e62 34c0 ab84 53c0 e3a7 13c0
000000d0: 63c3 74c0 3ef1 81c0 2cd1 41c0 5f84 5240
000000e0: 48e1 2fbf 8533 853f 5e7d a6bf 727a 8cbf
000000f0: 9f2c b8bf 13c7 84bf 5818 c1bf 669f 19c0

critic.mlp.0.weight f4 [40, 20]
0.18570809 0.08566256 -0.18403849 -0.16456097 -0.15160999 0.016242133 0.008509612 0.19023533
-0.17335561 -0.0043416754 -0.054636717 -0.031013327 -1.1105963 -1.2160422 -0.07923587 0.02122334
0.009448616 0.17070958 -0.13865252 -0.08443253 0.059202913 0.2394304 -0.046018317 0.1673276
0.10474985 0.20208968 0.014229694 -0.3956726 -0.11506506 -0.076945476 -0.27540216 0.0049552596
0.034837056 -0.07857441 -0.34445992 -0.39766085 -0.13319652 0.30759025 -0.0884631 -0.07986443
-0.049110446 -0.3789824 0.037830845 -0.20878048 -0.0026543404 -0.15045896 0.13459823 0.1246216
-0.073205054 -0.04931413 0.13652559 0.2158117 0.12702495 0.14618197 0.14344153 -0.13814506
0.14205337 -0.023765126 -0.16146289 -0.12199615 0.0559365 -0.0028164834 -0.13245405 0.0675532
0.08618224 0.02796818 -0.19136852 -0.14809565 -0.019163277 0.055496544 -0.37222305 -0.28185248
0.1065694 0.18464004 -0.0053222436 -0.002605356 -0.11515352 -0.284553 -0.17933592 -0.3397956
-0.49634477 0.3828448 0.17002161 -0.22305404 0.0765637 0.14899863 -0.051534627 -0.117094964
0.35847682 -0.1749813 0.06723493 0.098342635 0.05501591 -0.09907549 -0.23604982 -0.15979132
0.069924705 0.053914588 -0.18917038 -0.14349554 0.3989896 0.1414351 -0.097498186 -0.05627843
-0.4910062 -0.17853674 -0.14441524 -0.14850675 0.05535531 0.022220187 -0.06760008 0.15665716
0.026144337 0.23101942 0.17721155 -0.1645899 -0.034925777 -0.06797216 0.05659817 0.07700758
-0.061700594 -0.085584275 -0.10910419 0.10580827 -0.119536966 -0.12026402 -0.018317036 -0.07126362
-0.039314523 -0.15098974 -0.009906152 0.08545594 0.015577592 0.016643655 0.19772737 0.014671462
0.044297975 -0.028468527 0.08291229 0.17983642 0.44733652 0.37293494 0.21229532 -0.016171614
0.019394135 0.042970914 0.19913514 0.045431126 -0.36321345 -0.38118124 -0.16238266 -0.14184572
-0.057860143 0.0651706 0.16777103 -0.16877335 0.01852044 -0.029795509 -0.0003920446 -0.043785803
-0.40239236 -0.24029127 -0.20065355 -0.19307058 -0.08851518 -0.009301052 -0.06865733 0.1171541
-0.32666045 -0.0971521 0.22956683 -0.058285996 0.051019955 0.114473544 -0.16887397 0.17439711
-0.069414236 -0.20087469 0.21172906 -0.14777382 0.20399186 -0.21729478 0.15968044 0.062418614
0.29303473 0.09251262 -0.1143037 -0.10755777 -0.36066356 0.23890707 0.117006116 0.09246484
-0.096029006 0.049764723 -0.21816061 -0.18362427 -0.006559265 -0.012706543 -0.19378248 -0.06541005
0.012727834 0.27193913 -0.16902886 -0.1535088 -0.21010037 0.063415065 -0.16098301 0.10800497
0.2118816 0.015347394 -0.08226962 -0.12480706 0.2321894 -0.03957044 -0.082175896 -0.052074354
-0.32903135 -0.078742936 0.09995567 -0.26207274 -0.15518124 0.4576274 0.08077506 0.0063309884
-0.19518673 0.07865153 -0.15773885 -0.061942212 0.041419014 -0.0042202286 0.00397778 0.18596454
0.028400265 0.122733735 0.13831511 -0.1398355 0.059461627 -0.46760106 -0.09323851 0.067299694
-0.0008456728 0.16258666 -0.07198258 0.00035796352 0.051087126 -0.2155165 0.10672612 -0.23984283
-0.008669197 -0.053488225 -0.17270558 -0.025383517 0.11503336 -0.099018246 -0.1876914 -0.13763644
00000000: 432a 3e3e da6f af3d 9674 3cbe ac82 28be
00000010: a63f 1bbe 390e 853c e66b 0b3c 0dcd 423e
00000020: 2284 31be 9d44 8ebb c0ca 5fbd a90f febc
00000030: 0528 8ebf 45a7 9bbf 6a46 a2bd 92dc ad3c
00000040: 5ece 1a3c 7ece 2e3e edfa 0dbe f6ea acbd
00000050: c17e 723d 3e2d 753e b47d 3cbd ed57 2b3e
00000060: 1787 d63d 99f0 4e3e aa23 693c 9995 cabe
00000070: 3ba7 ebbd 9795 9dbd 8301 8dbe bb5f a23b
00000080: 4db1 0e3d 9feb a0bd 0d5d b0be 349a cbbe
00000090: ab64 08be 787c 9d3e 242c b5bd f68f a3bd
000000a0: 0928 49bd fb09 c2be 84f4 1a3d 8dca 55be
000000b0: 71f4 2dbb ea11 1abe 1ed4 093e 9c39 ff3d
000000c0: 88ec 95bd 9dfd 49bd 5dcd 0b3e befd 5c3e
000000d0: d412 023e bab0 153e 56e2 123e e675 0dbe
000000e0: 7076 113e 15af c2bc 8756 25be 1ed9 f9bd
000000f0: ac1d 653d c094 38bb 09a2 07be 5559 8a3d
00000100: 5080 b03d 861d e53c 1cf6 43be 63a6 17be
00000110: 4efc 9cbc 5850 633d 0594 bebe f84e 90be
00000120: 0f41 da3d 4712 3d3e 3766 aebb 9fbe 2abb
00000130: 9cd5 ebbd eeb0 91be d6a3 37be b0f9 adbe
00000140: e720 febe 3c04 c43e 251a 2e3e 4768 64be
00000150: 6ecd 9c3d 1993 183e f915 53bd 7ccf efbd
00000160: 468a b73e 4c2e 33be 78b2 893d dd67 c93d
00000170: 5d58 613d 17e8 cabd 0bb7 71be 56a0 23be
00000180: af34 8f3d 8bd5 5c3d e1b5 41be 7ff0 12be
00000190: 5d48 cc3e 5dd4 103e 21ad c7bd 3684 66bd
000001a0: 2a65 fbbe 56d2 36be 97e1 13be 2712 18be
000001b0: 40bc 623d 1c07 b63c e971 8abd bc6a 203e
000001c0: a62c d63c 5b90 6c3e f276 353e 418a 28be
000001d0: 550e 0fbd fd34 8bbd 7cd3 673d 26b6 9d3d
000001e0: c3b9 7cbd cf46 afbd 0472 dfbd 02b2 d83d
000001f0: cccf f4bd fc4c f6bd 9c0d 96bc a9f2 91bd
00000200: 4408 21bd 0e9d 1abe 6a4d 22bc 8603 af3d
00000210: 2839 7f3c 4658 883c 0b79 4a3e 9260 703c
00000220: cb71 353d d436 e9bc ebcd a93d 0a27 383e
00000230: 4b09 e53e 54f1 be3e f263 593e 557a 84bc
00000240: 73e0 9e3c 4502 303d 15ea 4b3e fd15 3a3d
00000250: 1df7 b9be 302a c3be a447 26be 0140 11be
00000260: c2fe 6cbd 2a78 853d 2bcc 2b3e ecd2 2cbe
00000270: 2eb8 973c b615 f4bc 568b cdb9 be58 33bd
00000280: 5f06 cebe ea0e 76be 2078 4dbe 4bb4 45be
00000290: 7247 b5bd 7163 18bc 379c 8cbd 7dee ef3d
000002a0: 0a40 a7be aef7 c6bd 9113 6b3e 4cbd 6ebd
000002b0: 4dfa 503d 1b71 ea3d 4ced 2cbe 2895 323e
000002c0: 0d29 8ebd 18b2 4dbe 81cf 583e 0552 17be
000002d0: 3ee3 503e 8682 5ebe 4583 233e a9aa 7f3d
000002e0: a608 963e 4277 bd3d 0f18 eabd 4047 dcbd
000002f0: e5a8 b8be 0ea4 743e e7a0 ef3d 355e bd3d
00000300: dbaa c4bd 18d6 4b3d 7f65 5fbe 0008 3cbe
00000310: 1aef d6bb 1b2f 50bc ea6e 46be b4f5 85bd
00000320: 6888 503c 9b3b 8b3e e715 2dbe 6931 1dbe
00000330: 8d24 57be c2df 813d bbd8 24be b631 dd3d
00000340: 7df7 583e a373 7b3c f97c a8bd d89a ffbd
00000350: 0fc3 6d3e 9d14 22bd d64b a8bd eb4b 55bd
00000360: cc76 a8be fa43 a1bd 8fb5 cc3d 662e 86be
00000370: d5e7 1ebe 234e ea3e 656d a53d 2e74 cf3b
00000380: 08df 47be 0e14 a13d 4b86 21be 1eb7 7dbd
00000390: fca6 293d d849 8abb 0a58 823b 7d6d 3e3e
000003a0: aca7 e83c d35b fb3d 7aa2 0d3e 0a31 0fbe
000003b0: 098e 733d 6869 efbe d5f3 bebd 6cd4 893d
000003c0: 24b0 5dba 1e7d 263e 9a6b 93bd 0dad bb39
000003d0: bc40 513d 5bb0 5cbe 3993 da3d 5c99 75be
000003e0: 3f09 0ebc 7816 5bbd bbd9 30be 18f1 cfbc
000003f0: 9c96 eb3d 14ca cabd 2d32 40be 91f0 0cbe

critic.mlp.0.bias f4 [40]
0.112414666 -0.2838173 0.17177638 -0.3568068 -0.014102333 0.22497849 0.26000997 -0.082645945
0.07275287 -0.034118906 -0.1854427 -0.07572318 0.005626912 -0.097445816 0.028353592 0.062130515
-0.25726464 0.110122025 -0.1710686 0.039280903 0.17271401 -0.029950071 0.14976236 0.002338879
-0.020366913 -0.093110055 0.04259502 -0.17202766 0.032483038 0.038316745 0.15089688 -0.06808716
-0.023375815 -0.16595568 -0.22829546 0.058486957 -0.059130244 -0.15994301 -0.13648391 0.11006429
00000000: a939 e63d 8050 91be 26e6 2f3e 62af b6be
00000010: 790d 67bc c360 663e 0720 853e 4742 a9bd
00000020: 75ff 943d 44c0 0bbd b1e4 3dbe c114 9bbd
00000030: f661 b83b ac91 c7bd cb45 e83c 917c 7e3d
00000040: 31b8 83be a887 e13d 9b2c 2fbe 03e5 203d
00000050: f1db 303e da59 f5bc 4e5b 193e e147 193b
00000060: 83d8 a6bc 7cb0 bebd 1e78 2e3d 0528 30be
00000070: ef0c 053d 05f2 1c3d b684 1a3e 4871 8bbd
00000080: a37e bfbc 49f0 29be 49c6 69be 0590 6f3d
00000090: 8e32 72bd 1ac8 23be 70c2 0bbe 6369 e13d

critic.mlp.2.weight f4 [1, 40]
-0.28328577 0.2570953 0.07570337 0.03209142 0.53822577 -0.16300131 -0.0062406124 0.5113153
0.16913848 0.37307757 0.10276939 0.3836767 -0.088903904 -0.49557272 -0.020790933 -0.77249384
-0.031516325 -0.06335032 0.053597365 -0.19069734 0.13875635 0.39539883 0.2884629 -0.20705126
0.32019126 -0.4379006 -0.22779477 -0.06353194 -0.06946095 0.31284672 0.10318908 -0.13379264
-0.15051797 -0.07908636 -0.21577272 0.051913604 0.03919894 -0.0022515033 -0.17295364 -0.17217529
00000000: d50a 91be ffa1 833e 5e0a 9b3d 4b72 033d
00000010: 2ac9 093f d1e9 26be 0d7e ccbb 8fe5 023f
00000020: a332 2d3e 0604 bf3e c278 d23d 4671 c43e
00000030: 4013 b6bd b5bb fdbe bf51 aabc 28c2 45bf
00000040: 4317 01bd d0bd 81bd e988 5b3d 2a46 43be
00000050: 2516 0e3e b771 ca3e 69b1 933e 3f05 54be
00000060: 1cf0 a33e 8234 e0be 0843 69be 091d 82bd
00000070: 8b41 8ebd 722d a03e cc54 d33d f000 09be
00000080: 6221 1abe 08f8 a1bd 86f3 5cbe 5ca3 543d
00000090: 118f 203d f58d 13bb c21a 31be b84e 30be
