results/models/getout/ppo/ppo_.pth (torch, 22927 bytes, 7 tensors)

actor.mlp.0.weight f4 [40, 60]
000000 00 60 7d ba 56 d5 8d 3d 6b e5 d7 bd 2c de c0 bd
       -0.0009665489 0.06925456 -0.10541805 -0.09417376
000010 72 3d 48 bd a0 cc 0d 3d 4c be e1 ba b4 32 bc 3e
       -0.048886724 0.034618974 -0.0017222851 0.36757433
000020 4f b2 b5 3e 71 d4 68 bf 02 ed 43 3f 58 e2 cf bc
       0.354876 -0.9094916 0.7653352 -0.025376484
000030 0a 97 fc bd c2 1a af bd e2 fa 59 bd e0 b4 9c 3b
       -0.12333496 -0.085500255 -0.053217776 0.004782304
000040 c0 0c 51 3d b8 a4 9e 3d a4 3e b3 bd da 44 66 bd
       0.05103755 0.07746261 -0.08752182 -0.056218006
000050 e8 10 40 3d 0c 8d db 3d 94 a6 d9 bc b2 d9 c5 3d
       0.046891123 0.10720262 -0.026568688 0.09660663
000060 f8 76 aa bc 70 d0 5f 3c 6c 67 ef 3d a3 45 f5 bd
       -0.020808682 0.013660535 0.11689648 -0.11976173
000070 75 72 a6 bd 20 df 05 bd 72 1f 4e bd 24 70 e4 3d
       -0.081273 -0.03268349 -0.050322957 0.111542016
000080 3a 60 ab bd 94 fe 6f bd 62 fd a8 be f5 e8 f5 bd
       -0.08367963 -0.058592394 -0.33005816 -0.12007324
000090 05 97 97 bf 24 46 e3 3d d8 f4 6b 3d 34 25 80 3d
       -1.1842963 0.11097363 0.057606548 0.06257096
0000a0 c0 7a de 3b 22 8d 87 bd 37 c7 b9 3c d1 03 4e 3d
       0.0067895353 -0.06618716 0.022678 0.05029661
0000b0 b3 54 bd bd cc 4d 88 bd 38 d1 a6 3d 52 05 9b 3d
       -0.09244671 -0.066554636 0.08145374 0.07569374
0000c0 2e 84 6a bd f0 a3 98 bb da 18 a9 3d 56 48 bb 3e
       -0.057254963 -0.0046582147 0.08256693 0.36578625
0000d0 3d be 96 3c 24 80 82 3e 10 46 b1 3d 42 ad 9b bd
       0.01840126 0.2548839 0.086559415 -0.07601406
0000e0 00 13 c5 3c c7 fc cc bd bc 3f b7 bd 1c 95 88 bd
       0.024056911 -0.10009151 -0.08947703 -0.06669065
0000f0 88 43 6f 3d b0 a8 54 3d 8d 9d 9c bd 68 c0 1f 3d
       0.058414012 0.051918685 -0.07647238 0.039001852
000100 54 25 91 3d 3c 7c 85 bc 40 85 a1 3b 00 0c f5 3c
       0.07087198 -0.016294591 0.0049292147 0.029912949
000110 5e 06 a4 3d 06 df fd 3d e1 bf cb bd 38 c9 41 bd
       0.08009027 0.12396054 -0.09948707 -0.047311038
000120 fc d1 4f 3d 9a 10 db 3d 3c 14 e6 3d 92 4a e9 3d
       0.050737366 0.10696526 0.11234328 0.11391176
000130 70 79 d2 3c f4 e9 e5 bd 50 94 42 3c 48 68 a5 bd
       0.025692672 -0.11226264 0.011876181 -0.08076531
000140 96 67 f6 bd de e9 ea 3d 2c 09 c9 3d fc de 03 be
       -0.12031476 0.11470388 0.098162025 -0.1287803
000150 30 f3 c5 3c 10 29 b2 bc 7c 09 ae bc d0 0e 72 bd
       0.024163812 -0.021748096 -0.021244757 -0.059096158
000160 98 59 4b 3d 3c 9a 9c bd b0 d9 41 3d 00 b5 85 3d
       0.04964599 -0.07646605 0.047326744 0.06528664
000170 fa 45 bd 3d 90 b8 45 3d 42 d7 02 be 3c 83 ab bd
       0.092418626 0.048271716 -0.12777427 -0.0837464
000180 48 04 84 3d 80 5a dd 3c 36 40 ce bd 82 3e 98 bd
       0.06446129 0.027020693 -0.10070841 -0.074337974
000190 e2 ba f8 3d 8e 27 b2 3d fa 90 66 bd b6 16 05 bd
       0.1214502 0.08698951 -0.056290604 -0.032492362
0001a0 e1 dc fb bd c0 12 18 bb 02 1b c7 bd 80 f1 cb bd
       -0.12297989 -0.0023204535 -0.09721948 -0.09958172
0001b0 f0 16 e9 bb 70 ca 9e 3c 5a 8e 58 bd f0 e2 9c 3d
       -0.00711333 0.01938364 -0.052870132 0.076604724
0001c0 25 e5 a0 bd 9c e7 ef 3d b8 30 b5 3d da f5 de bd
       -0.07856206 0.11714098 0.08847183 -0.10886736
0001d0 9e 9b 03 bd 40 e2 be 3b 70 4d 9a 3c d8 d4 fa 3c
       -0.03213083 0.005825311 0.018835753 0.03061907
0001e0 40 83 4f 3d c0 65 fd 3b 13 4e 8d bd f2 a0 61 3d
       0.05066228 0.007733077 -0.06899657 0.05508513
0001f0 be f5 04 be 86 b5 9c bd 3a f6 1c bd c8 16 8d bd
       -0.12984368 -0.0765181 -0.038320757 -0.06889111
000200 88 95 51 bd ce aa cc bd ac cc b0 bc a8 10 e2 3c
       -0.051167995 -0.09993516 -0.02158197 0.027595833
000210 a6 3e ac bd 10 19 d9 bb 92 44 bd 3d 88 70 59 bc
       -0.08410387 -0.006625302 0.092415944 -0.013271458
000220 00 24 6b 3b 18 79 36 bc f8 08 d6 3c fa 1c a8 3d
       0.0035879612 -0.011137269 0.026127324 0.08208652
000230 a2 72 fa 3d f2 e7 a7 3d 56 05 fb 3d e8 f8 18 bc
       0.12228896 0.08198537 0.12256877 -0.009336688
000240 27 83 ed bd 1c b0 7a bd 44 07 b4 3d 00 62 5b ba
       -0.11597281 -0.061203107 0.08790448 -0.000836879
000250 ba 6a 83 bd 08 9c ca bd 6b 6f f7 bd f0 26 df bd
       -0.06416841 -0.09893042 -0.12081798 -0.108960986
000260 40 84 d6 bc a8 b2 84 3d e9 a4 82 3d ed a4 05 be
       -0.026186109 0.064793885 0.0637911 -0.13051195
000270 91 aa 98 3d 61 e4 ce bd 78 95 df bc 10 69 56 bd
       0.07454408 -0.101021536 -0.027292952 -0.05234629
000280 e0 b4 cb bc 0c a6 cf bc cc 8d f9 bd 85 96 f0 bd
       -0.024866521 -0.025347732 -0.12185249 -0.11747459
000290 9d ad d6 bc 80 d4 da 3a 74 37 70 bd fc 31 47 3d
       -0.026205832 0.001669541 -0.058646634 0.048631653
0002a0 b6 f8 ed bd 28 bf 0e bc c2 83 e8 3d 75 49 70 bd
       -0.116197035 -0.008712567 0.11353256 -0.058663804
0002b0 80 73 e2 3d e5 e8 26 3d 54 9b ee bd 4e 48 a7 3d
       0.11057186 0.04074945 -0.1165072 0.08168088
0002c0 10 14 74 bc 5a 0e 6c bd c4 6c d3 3d 28 a8 d5 bd
       -0.014897361 -0.057630874 0.1032348 -0.10432464
0002d0 c0 f7 62 3c b8 6c dd bc 9f 9e 94 3d 3c 77 86 3c
       0.0138530135 -0.02702938 0.07256817 0.016414277
0002e0 6a b5 2d 3d 54 bf 3a 3d 99 89 4f bd 85 e9 81 bd
       0.042409338 0.04559262 -0.050668333 -0.063433684
0002f0 a7 dc d9 bd 73 fd 82 3f 58 91 18 bc f4 e7 b4 3d
       -0.10637789 1.0233597 -0.009311996 0.08833304
000300 bc 7f ba bd 20 ac bc 3b ac 61 ba bd ae 8b 91 bd
       -0.09106395 0.0057578236 -0.09100661 -0.0710672
000310 97 10 9a bd 38 b6 34 3d 8e 8e 9d bd 80 96 38 bb
       -0.075226955 0.04411909 -0.07693206 -0.0028165877
000320 40 f6 b1 3b 80 6f aa 3d ab dc c7 bd c8 82 b5 bd
       0.0054309666 0.08322048 -0.09758886 -0.08862835
000330 3e 86 99 bd 32 0f b9 3d fc 14 3e bd c6 03 df 3d
       -0.07496308 0.090361014 -0.04640673 0.108893916
000340 04 37 3f 3d e0 ea 85 3c 00 ed 7b ba 88 10 d1 bc
       0.046683326 0.016347349 -0.0009610206 -0.025520578
000350 e8 b0 84 3c f3 1f 49 bd 9d 89 f3 bc 0f 82 4e bb
       0.016197637 -0.049102735 -0.029728705 -0.0031510626
000360 0e 3c 23 be fc 93 8a bd 62 7f d5 3d c6 91 d6 bd
       -0.15940878 -0.06766507 0.10424687 -0.10477023
000370 c8 e1 17 bc 75 c6 02 3e 48 48 dd 3c cd c7 87 3d
       -0.009270139 0.12771018 0.027012005 0.06629906
000380 70 a8 06 be cc f9 82 3d ee 52 bc bd de 1a 16 bd
       -0.13150191 0.06395301 -0.09195505 -0.036646716
000390 0a 6b 31 bd 58 9d 9c bc 00 17 b9 3a 81 fb ca 3c
       -0.04331497 -0.019117996 0.0014121234 0.02477813
0003a0 4b b9 60 3c 0a fa 0a 3d f0 bb a1 3d 96 27 a7 bd
       0.013716052 0.033929862 0.07897174 -0.08161847
0003b0 44 2a 6d 3d 77 e6 ba bd 74 1d 60 bd 90 87 1b 3d
       0.057901636 -0.09125989 -0.05471559 0.03797108
0003c0 4c 9a 2e 3d 66 5b c6 3d eb e2 8f bc eb 41 c6 3c
       0.042627618 0.096854016 -0.017564258 0.024201354
0003d0 41 42 b9 3d ea b1 ff bd 44 4b f0 3d ff 22 92 be
       0.0904584 -0.12485106 0.11733106 -0.28542325
0003e0 6a 18 e0 be d0 08 79 3f 32 81 49 3a 20 c8 8b 3c
       -0.43768626 0.9727907 0.0007686793 0.0170632
0003f0 3c a2 da 3d 76 93 1a bd 5b f8 9c bd 4c 91 43 bd
       0.10675475 -0.037738286 -0.076645575 -0.047745988

actor.mlp.0.bias f4 [40]
000000 a2 99 00 3e 00 4e 0d 3a eb 4e ab bd 68 ea 5f 3d
       0.12558606 0.0005390346 -0.08364662 0.054666907
000010 43 d5 3d bb 53 4f c1 bc 0e f8 a5 3c 70 cd 01 be
       -0.0028966225 -0.023597395 0.020259883 -0.12676024
000020 d4 41 c4 bc 60 40 68 bc 61 6d dc bd a3 85 b3 3d
       -0.02395717 -0.014175504 -0.1076305 0.087657236
000030 f9 d6 d1 3c 2a 70 4a bd f6 59 e2 3d 55 d2 1d be
       0.025615202 -0.049423374 0.11052315 -0.15412267
000040 b6 4d 1b bd 60 a0 44 3d b8 d3 f6 bd fa 01 01 3e
       -0.037915908 0.048004508 -0.12052101 0.1259841
000050 5a d1 bb 3c 22 22 28 be 48 32 0a be 3a 5c 34 3d
       0.022926975 -0.1641927 -0.13495743 0.044033267
000060 62 78 51 3d 31 85 83 bd f5 72 2c be 9e 6d ad bd
       0.051140197 -0.064218886 -0.16840728 -0.084681734
000070 24 2a 96 bc d9 6c 7d bc c0 5b 07 3d 9c d0 ca 3c
       -0.018330641 -0.015467846 0.033046484 0.024757676
000080 23 2c 37 bc 5b 7b 93 3c bc fa 48 3e 0a 20 bd 3d
       -0.011179957 0.018003156 0.19626898 0.092346266
000090 d2 7c d2 3d 2c cf 74 3d 43 30 5b bd a8 f0 69 bc
       0.10277714 0.059767887 -0.053512823 -0.014278568

actor.mlp.2.weight f4 [3, 40]
000000 c5 28 19 3f 06 13 83 3d c2 97 a4 bc bc 48 fd bd
       0.59827834 0.06400113 -0.020091895 -0.123673886
000010 65 b2 72 3e c8 7e 90 3e d1 9e 03 bf f5 52 40 bd
       0.23700865 0.28221726 -0.5141421 -0.046954114
000020 91 34 b6 3e 1c 89 a0 bd 90 67 de 3c 3e ff ef 3e
       0.3558698 -0.078386515 0.027148992 0.46874422
000030 c1 31 b4 be 54 60 6e bd 78 6f 1a 3e 69 b4 2e be
       -0.3519421 -0.058197334 0.15081584 -0.17061009
000040 25 60 22 bf db 20 dc bc ec 16 10 3e ff e6 29 bf
       -0.63427955 -0.026871135 0.14071244 -0.663681
000050 68 dd f4 3d 10 b8 8e 3d eb ef ba 3d c7 1c 54 be
       0.119562924 0.06968701 0.09127792 -0.20714103
000060 dc ac c7 3d 14 34 8c 3d 5b 79 7e 3f b0 60 cb 3c
       0.09749767 0.068458706 0.99403924 0.024826378
000070 4d a7 cf bd 02 13 c2 3d 44 12 aa 3d 97 0a ea be
       -0.10139332 0.09476282 0.08304265 -0.45711204
000080 61 e9 1f be ae b0 00 3f 76 74 52 3d 18 0a 92 bd
       -0.1561637 0.5026959 0.051380597 -0.071308315
000090 54 d6 f4 3d 85 c1 05 be 47 c3 10 bf 72 71 8e 3d
       0.11954942 -0.13062103 -0.5654797 0.06955232
0000a0 1e ba 90 bb 18 2f cc bc 76 76 31 bd 28 2b b7 bc
       -0.004416718 -0.0249248 -0.043325864 -0.022359446
0000b0 c4 c5 34 bf e7 61 f9 bd 69 46 8e 3e a7 ac 7c 3c
       -0.70614266 -0.121768765 0.27788094 0.015422023
0000c0 d5 cb 47 bf 80 fc 83 bb 21 49 07 be 6b 60 3e 3f
       -0.780454 -0.004027903 -0.1321149 0.7436587
0000d0 f5 45 ba 3e 8b 05 1d 3e a8 c3 37 be ef 10 bd 3d
       0.36381498 0.15334146 -0.1794573 0.092317455
0000e0 05 38 96 3e 28 90 69 3e 60 a7 cd bd ec 41 02 3f
       0.29339615 0.22808897 -0.1004169 0.5088184
0000f0 8d c9 89 3d 09 a2 06 3e 55 8a d9 bd 47 6a 0f 3e
       0.06727896 0.13147749 -0.10622088 0.14005385
000100 e0 dd 71 bd db bc bf bd ff 03 5e 3f b0 93 35 3e
       -0.059049487 -0.09362193 0.8672485 0.1773212
000110 b7 20 e5 bd e3 03 f8 3d 70 57 94 bc 82 09 5b 3e
       -0.111878805 0.12110116 -0.0181081 0.21390346
000120 5a 5d 81 3e f4 ff 56 3f 0c e5 32 be 9a 34 3d bd
       0.25266534 0.83984303 -0.17470187 -0.046192743
000130 d6 f3 7a 3d fe c5 76 be ca c5 1b 3e 3a e1 ad bd
       0.061267696 -0.24098966 0.1521217 -0.08490224
000140 fb 42 25 bf 78 af 67 3d 0f 58 f8 bd ca 7f 3f bd
       -0.6455533 0.056563824 -0.12126171 -0.04675273
000150 d5 7b ce 3e dd 09 d0 be 17 4f 95 3e 96 ae f3 bd
       0.4032885 -0.40632525 0.29161903 -0.11898534
000160 ba 47 5a 3e e8 f2 04 3d 06 bd 89 3d 4f f7 c5 bf
       0.21316424 0.032458216 0.067255065 -1.5466098
000170 24 ce c8 3c 7c 6e 8b 3d f6 b2 24 3e 9f f3 d6 bd
       0.024512358 0.068081826 0.16083893 -0.10495686
000180 a5 81 e6 3d 83 b9 04 bd a6 f0 58 3a 4a b0 1f 3c
       0.112551965 -0.03240348 0.00082756055 0.00974662
000190 08 c7 92 be ba 49 a7 be 80 bf d1 bd 40 74 8c 3d
       -0.28667474 -0.32673436 -0.10241604 0.068581104
0001a0 93 9f cd bd 6e b6 3c be e1 80 db bf 48 c0 41 3d
       -0.10040202 -0.18428966 -1.7148706 0.047302514
0001b0 30 d4 59 bd 49 87 7e 3c 80 7b ff ba 5b 17 38 3e
       -0.053180873 0.015535184 -0.0019491762 0.1797766
0001c0 71 71 6c be 22 87 aa bf 8c d2 8b 3e 9b f9 d9 3d
       -0.2309015 -1.3322489 0.27309072 0.106433116
0001d0 0f 8a 09 be cc ce 04 3e 3c 24 85 3e ae d8 55 bd
       -0.13431571 0.12969512 0.26004207 -0.052208595

actor.mlp.2.bias f4 [3]
000000 1e b2 ce bd 18 8c 2c be 6b b2 35 3e
       -0.10092567 -0.16850317 0.17743842

critic.mlp.0.weight f4 [40, 60]
000000 be 31 2b bd a8 1e 08 bc 70 5c 9e 3c 59 46 c8 bd
       -0.041795485 -0.00830809 0.019331187 -0.09779043
000010 c3 ce e6 bb 0e 44 9d 3d 93 94 c0 bd b8 9c e4 bc
       -0.007043691 0.07678996 -0.09403338 -0.02790676
000020 e9 e6 76 bd 5d a6 37 be ba 0d 24 3d 94 4a 0c 3d
       -0.060278807 -0.17934556 0.040052153 0.03425081
000030 40 a5 7f 3b 92 99 e3 bd 60 8a 52 3d 6c 31 a1 3d
       0.0039008409 -0.111132756 0.051401496 0.078707546
000040 06 12 40 bd cd 43 03 be c8 41 d6 3d 90 3e f8 bc
       -0.04689219 -0.12818833 0.104617655 -0.03030327
000050 d0 97 d3 3c ce a5 14 bd e2 9c a8 3d 09 ee 00 3e
       0.025829226 -0.036290936 0.08233048 0.12590803
000060 c2 bb a5 3d d6 48 28 bd 2c 49 b9 3d ce 01 81 3d
       0.080924526 -0.041085087 0.090471596 0.06299172
000070 30 5c 4e 3c 32 f7 d4 bd 34 0f 63 bd 76 cb 02 be
       0.012595221 -0.10398711 -0.05543442 -0.12772927
000080 32 d6 b0 3d 76 5c df 3d e7 2d 2a 3d 93 f3 b9 3c
       0.086346045 0.109063074 0.041547682 0.022699153
000090 3a 5d 9b 3e c2 84 fe 3d 05 0b 86 bd 58 87 31 bd
       0.30344564 0.12427665 -0.065450706 -0.043341964
0000a0 29 65 ed bd 88 73 51 bc 6f d7 1e bc 11 74 5a 3d
       -0.115915604 -0.012783892 -0.009694918 0.053333346
0000b0 5f ed dd bd f8 c3 74 bc be dc d9 bd e7 11 d7 bd
       -0.108362906 -0.014939301 -0.10637806 -0.105014615
0000c0 68 d9 89 3c 93 0b 01 be 3c ce 0c 3d 8f d3 c1 bd
       0.0168273 -0.12602071 0.034376368 -0.0946418
0000d0 e7 11 fc bd 43 0c 24 bb cf 4e fc bd d4 88 d5 3d
       -0.12308102 -0.0025031723 -0.12319719 0.104264885
0000e0 5e a2 d8 3d fd 19 8a bd e0 8a dd 3c 1a 42 87 3d
       0.10577844 -0.06743238 0.02704376 0.06604405
0000f0 20 09 28 3d 5c ab 8d bc 86 61 f9 bd 9a 40 c0 3d
       0.041024327 -0.017293625 -0.12176804 0.09387322
000100 8c e6 e7 bd 30 dd c3 bc f0 34 03 3c 38 27 2e bd
       -0.1132327 -0.023909181 0.008008227 -0.04251787
000110 6e 68 41 bd 65 82 e4 bd 80 16 e9 3b a8 2a 70 bc
       -0.047218733 -0.11157683 0.007113278 -0.014658608
000120 34 80 e6 3d da 16 2e bd fa 5a cc 3d a0 43 c8 3b
       0.112549216 -0.04250226 0.0997829 0.006111577
000130 96 93 6d bd 48 83 fb bc 08 08 70 bc 80 46 af 3a
       -0.058002077 -0.030702248 -0.014650352 0.0013372451
000140 50 3d ae bc 58 ee 1c 3d ee bb d9 3d 10 3c a6 3c
       -0.02126947 0.03831324 0.10631548 0.020292312
000150 f4 88 3f 3d 0a 45 a3 3d c0 f6 e3 3c e0 c1 73 3d
       0.046761468 0.079721525 0.02782762 0.059511065
000160 5e b0 8a 3d 54 7a f7 3d 3c 4d f1 bd a4 f2 34 3d
       0.067719206 0.12083879 -0.117823094 0.044176713
000170 b0 ae bf bb 80 ee bd bc 0c df 4b bd 70 f4 9e 3d
       -0.005849682 -0.023185015 -0.04977326 0.077614665
000180 a6 dd f1 3d 47 c5 d7 bd 02 d9 8e 3d 5e 50 b6 3d
       0.11809854 -0.105356745 0.06974985 0.089020476
000190 80 d6 b8 3c 80 54 c7 3a 94 75 cb 3d c0 d8 7a 3b
       0.02256322 0.0015207678 0.099345356 0.0038276166
0001a0 b8 e4 03 bd 88 31 1c bc a0 a7 29 3d 90 60 04 3d
       -0.032200545 -0.009533294 0.041419625 0.03231865
0001b0 60 3d e4 bb f8 eb 26 3d 1c 6a 0e 3d 13 2d d6 bd
       -0.0069653243 0.04075238 0.034769163 -0.10457816
0001c0 34 c3 03 3d da c4 a1 3d 30 92 72 3c c0 10 41 bc
       0.032168582 0.078988746 0.014805362 -0.011783779
0001d0 0e 89 ca 3d 5d ff e6 bd 14 5c 71 bd 3e 02 6f bd
       0.09889422 -0.112791754 -0.058925703 -0.058351748
0001e0 a0 73 e4 3d af ba ff bd 6a 47 44 3d 0b 36 b8 bd
       0.11154866 -0.12486779 0.04791967 -0.08994683
0001f0 64 e4 fc 3c ac 19 45 3d b9 39 a1 3b be 23 5d 3e
       0.030870624 0.048120186 0.004920211 0.21595666
000200 75 6f a2 bc ec 74 07 bc 27 be 24 bc ae 80 89 3d
       -0.019828537 -0.008267622 -0.0100551015 0.06713997
000210 00 7a 86 b9 00 2f e2 3d 1c 57 a7 bd b4 9f 61 3d
       -0.0002564937 0.11044121 -0.08170912 0.055083945
000220 20 22 96 3d b0 52 83 3d 00 a0 46 b8 74 f3 16 3d
       0.073307276 0.06412256 -4.735589e-05 0.03685327
000230 e0 6b cf bd 6b 7c cf bd b0 78 03 bc d4 8c 84 bc
       -0.101279974 -0.10131153 -0.00802438 -0.016180433
000240 12 52 c4 3d 1a fc bf 3d da 45 b3 3d 30 34 72 bd
       0.09585966 0.093742564 0.087535575 -0.0591318
000250 76 8f cf bd ba 00 f8 bd 14 60 3f 3d 04 3e ee bd
       -0.10134785 -0.121095136 0.046722487 -0.11632922
000260 b5 f7 03 be 2b d1 f6 bc 9f 1c 0a be 72 21 81 bc
       -0.12887461 -0.030129036 -0.1348748 -0.015763018
000270 bc dc 45 3a e7 a4 87 bd 0e 5e fb 3d 4c 4c c7 bc
       0.00075478456 -0.066232495 0.12273799 -0.024328373
000280 90 53 db 3d 80 b8 3b 3b d3 aa 97 3c 5e f9 09 3e
       0.10709298 0.0028643906 0.018514073 0.13474032
000290 89 2b 6a bd 9c 6d d4 bd c4 12 b7 3d be f3 22 bd
       -0.057170425 -0.10372469 0.08939126 -0.039783232
0002a0 e4 e3 00 be cc a4 f2 3d 00 f1 1c 3b 93 c9 9c be
       -0.12586933 0.11847839 0.0023947358 -0.3062254
0002b0 c9 29 be be 2e 0d a8 be 32 d6 e7 bd dc 41 ef 3d
       -0.37141255 -0.32822555 -0.113201514 0.116824836
0002c0 92 4c b6 3d e0 ff 2c 3c 6f 56 e1 bd 68 4e 0a bd
       0.089013234 0.010559052 -0.11002814 -0.03376618
0002d0 34 5f f8 bd 6c 3b 36 3d d5 5a 5b bd e2 1b 40 bd
       -0.121275336 0.044490263 -0.05355342 -0.04690159
0002e0 b8 f0 73 bd b0 ec 77 3d 6b 47 4f 3d b6 3d 15 bb
       -0.05955574 0.060528457 0.05060522 -0.0022772378
0002f0 7c 3f 79 bd 46 d3 c0 3e c4 20 00 3e ce e2 c4 bd
       -0.06085156 0.3766119 0.12512499 -0.09613572
000300 a3 fe 00 3e f6 0e 64 bd c2 d3 99 3d 3b 38 94 bd
       0.12597136 -0.05567833 0.07511093 -0.072372876
000310 00 31 63 3a 0c 05 35 3d 4f c3 f2 bd 74 8e 72 3d
       0.00086666644 0.044194266 -0.118536584 0.059217885
000320 5a 61 ca bd e8 94 93 3c c8 b7 d1 bc c8 8e 97 3d
       -0.098818496 0.01801534 -0.025600329 0.0740028
000330 b3 7b 00 3e c8 57 ee 3c 00 96 71 bb 53 fe 82 bd
       0.12547188 0.029094592 -0.0036863089 -0.06396165
000340 0c 27 45 3d e8 84 7e bd 1c 6d 5a 3d 58 31 65 bd
       0.04813294 -0.062138468 0.05332671 -0.05595526
000350 e2 57 b3 3d 62 53 a3 3d f3 da cb 3d ca 4e 93 bc
       0.08756997 0.079748884 0.099538706 -0.017981905
000360 82 52 cb bd 0b ed f0 bd f2 6a d6 3d ee 62 09 bd
       -0.099278465 -0.11763962 0.10469617 -0.033541612
000370 3c c6 40 3d ec 16 b3 bc 7c 41 80 bd 6a 3d 61 bd
       0.04706405 -0.021861516 -0.0626249 -0.05499021
000380 ea 10 83 3d 22 d8 8f bd f8 7f ba bc da 5f 85 3d
       0.063997105 -0.07023646 -0.022766098 0.06512423
000390 40 2e 55 3c 5d 76 de bd 45 74 03 be 08 c0 a3 bd
       0.013011515 -0.1086242 -0.12837322 -0.079956114
0003a0 ed 6d 51 3e 44 33 df bd c0 b7 91 3d 30 42 bd 3d
       0.2045209 -0.1089845 0.07115126 0.0924114
0003b0 c0 2e 5b bd 90 84 69 bd 41 37 be bd a8 f6 a4 3c
       -0.05351138 -0.057011187 -0.092878826 0.020137146
0003c0 b4 d8 93 bc a0 87 cd 3b af 05 20 3d 2f a9 18 3d
       -0.018047668 0.0062722713 0.03906792 0.03727072
0003d0 a8 2d 6c bd a0 45 11 3c 9c 0f 61 3c 9e dc 92 bd
       -0.05766073 0.008866698 0.013736632 -0.07170986
0003e0 90 f1 a3 3c b0 aa 67 3e 9d dc 3a 3e 00 f4 58 bc
       0.020012647 0.22623706 0.1824822 -0.013241768
0003f0 10 50 87 bc 68 4c ed bd ea a6 bf bd 80 97 83 3b
       -0.016517669 -0.11586839 -0.09358008 0.004015863

critic.mlp.0.bias f4 [40]
000000 f5 77 c6 bd f0 98 c2 3d d7 00 6c bc 0e ac b0 bd
       -0.09690849 0.09501827 -0.014404497 -0.08626567
000010 de c2 09 bd 80 b2 96 bc b0 93 1e 3d 69 7b 75 3d
       -0.033633105 -0.018395662 0.038715065 0.059932146
000020 91 8c 06 be ce 45 f0 3d 2c 06 00 be f4 17 33 3d
       -0.1313956 0.11732064 -0.12502354 0.043724015
000030 8e 74 83 bc d4 8b 8d bd 74 53 05 3e 25 c9 fe bd
       -0.016046789 -0.06911436 0.13020116 -0.12440709
000040 9b fe 95 bc e6 9f 1f 3e 75 f6 a8 3d f5 69 15 be
       -0.018309882 0.1558834 0.08250133 -0.145912
000050 aa 99 4a bc fa bd e1 3d da 7d 01 be 33 d9 07 3d
       -0.012365738 0.11022563 -0.12645665 0.03316612
000060 21 86 ad bd cc 50 40 3d 25 ab fa bd bd 95 82 3d
       -0.08472849 0.046952054 -0.122396745 0.063762166
000070 69 bb f2 bc d5 e3 74 3d 80 74 fe ba 51 1c 20 bd
       -0.02963038 0.05978759 -0.0019413382 -0.039089505
000080 95 e9 be bc 72 31 ff bd 60 65 92 bd a0 7d 8c 3b
       -0.02330474 -0.12460603 -0.07148242 0.0042874366
000090 0a 97 85 bd 13 38 ca 3d ee 7f bb bd da 76 4d bd
       -0.06522949 0.098739766 -0.0915526 -0.050162174

critic.mlp.2.weight f4 [1, 40]
000000 e2 92 ad 3c f8 27 03 be 5d a7 4e 3e 9e 24 35 be
       0.021188203 -0.12808216 0.20181032 -0.1768975
000010 0e 6a da be 00 2b 7e 3b 5c c4 b7 3d 0f 84 c4 3c
       -0.42659038 0.0038782954 0.089729995 0.023988752
000020 e9 ed b9 3e 00 ab ca ba ed 90 59 bd d7 7d 02 3e
       0.36314324 -0.0015462339 -0.053116728 0.12743317
000030 54 80 59 be d6 cc fc bd f6 31 bf 3c e0 61 a1 3d
       -0.2124036 -0.12343757 0.023339253 0.07879996
000040 d2 f0 0f bf 4e 61 2a 3e 89 fd f1 bd 48 80 8f bd
       -0.5622684 0.16638681 -0.11815936 -0.070068896
000050 61 5f 94 be 3b e4 76 bd 35 bd 03 be 6e 73 f7 3d
       -0.28979018 -0.06027625 -0.12865146 0.12082563
000060 df 35 9d bd 1b 1e 12 3e 8d 04 12 3c 36 32 51 be
       -0.07676291 0.14269297 0.008912218 -0.2042931
000070 e4 77 3e be c5 09 3d be 96 11 9b 3d 1c 6a 37 be
       -0.18600422 -0.18460758 0.075717136 -0.17911571
000080 c1 5c 45 be 5d e5 3d 3e fd 58 ef bd b0 74 9f bd
       -0.19273664 0.18544526 -0.11686895 -0.07785928
000090 2b fe 16 3e a8 e5 89 bd fd 2c 5d be 63 8e 9c 3e
       0.14745395 -0.067332566 -0.21599193 0.30577382
