src/models/threefish/logic/beam_search_top5.pth (torch, 3611 bytes, 4 tensors)

actor.im.W f4 [6, 30]
00000000: dc32 973f 8e24 b1bf 4a18 c8be c751 053e
00000010: a169 2f3d e91f 01c0 eaae c9bd f207 99bf
00000020: 9b78 93bf f248 1cbf fcca 65bf 6f7b d03e
00000030: 079e b2be 857e 67bf 9f3d 39bf c8b3 36bf
00000040: 19f3 5b40 92f8 b13f eb57 3040 b9ae febc
00000050: df7d 66c0 00dd d8be 12f7 7fbe 25bf e6bf
00000060: 4e9e 903f 06ed 20c0 712c 81bf 050c 9ebf
00000070: 892b e73e 34cb d63e 0cad 6ebf 962a 40bf
00000080: 782e 02c0 a8d4 43c0 495c bbbf 4768 2dbf
00000090: 947d 883f 06f3 563f 4656 0dbf 2698 96be
000000a0: 051e 0ec0 4f78 61c0 1c1a fabf b539 3240
000000b0: 0a58 76be 845f c7bf 78fa 13c0 188f 2bbe
000000c0: 3db3 2cc0 d408 a9bf 607f 00c0 abb1 3dbf
000000d0: 533e d1bf 478d 11c0 8d4a 92bf ecf5 33bf
000000e0: 5133 88bf a4a7 52bf 1ffd debf a0f7 bdbf
000000f0: fe4c 76bf 6022 42bf 2973 b9bf 5e70 f4bf
00000100: 79e8 1abe 17ba 16bf c092 f6bf c956 713e
00000110: b08a 9abf e718 cc3d 8ff4 953e e213 2dbe
00000120: b501 0abf 30d6 a0bf 3ae2 b4bf 507c 7cbf
00000130: e626 5dbf 256c 1abf 4d3b 17bf f0ad 013e
00000140: ca57 d0bf 050f 00bd bdab 12bc 1d89 c5bf
00000150: 4148 7c3f 5eee 2440 812d 8dbe e39c f5be
00000160: 3a30 0f3f 8554 6fbf eac7 1dc0 7bcb 70bf
00000170: 4d5e 00c0 fa2c 9fbf e676 e3bf ad4d b2bf
00000180: 9dc7 05c0 8978 d1be a3cf fdbf 515e debf
00000190: fef2 3740 3af2 4fc0 bb80 57c0 f2ee 99bf
000001a0: ff6c 80bf 1ac2 6bbe d8d2 eebf 984a 28c0
000001b0: 9235 b03e 2a88 98be 5910 34be d1ed 02bf
000001c0: 30ca 15c0 d758 7740 5ed3 11c0 730d aebf
000001d0: 1e70 9cbf 3076 0fc0 c2ba c6bf 51f6 9dbf
000001e0: b533 843d a9ae 93bf a556 51be 1d05 3b3e
000001f0: 1aaa 7abf cfa1 6640 5fbc 3cbe 0afd 8d3f
00000200: 91ba 6d3f 8922 463e 2480 4dbf 87fe ff3e
00000210: 2ff8 5abf 4f5d d23d 5b9d b2bf 04e6 223f
00000220: 00e9 333f e9af 05be 5fd4 c33e 6a73 7cbf
00000230: 5ad2 debf 3a84 66be 38bb 32be 9d9b 103f
00000240: 1c44 c83f 2b63 573f 43db 74bf c893 893f
00000250: 7c5b 9fbf f822 00bf 2ec6 2240 f268 ec3f
00000260: 8492 70c0 2019 e8be 29de 31bf a1cb b8bf
00000270: e662 183e b8c1 f4bf f6ce 02c0 3482 90bf
00000280: 9db5 bbbf 0c9f 5d3f 4ac8 38bf cbf9 3ebf
00000290: 2f6a 29c0 25ba e2bd 867a 9bbf 6d55 0cc0
000002a0: 97de 9d3f 3a63 c93e 49f5 e4be 33ea 3bbf
000002b0: 8117 e83f 9ebf aabf 8cc4 e6bf 5f0d d6be
000002c0: f1d8 e3bf 8f96 ccbf d8db 98bf 96c1 71bf
1.1812396 -1.3839281 -0.3908103 0.13019477 0.042825345 -2.0175726 -0.09847815 -1.195555
-1.1521181 -0.61048806 -0.89762855 0.40719172 -0.3488619 -0.9042743 -0.7235965 -0.71368074
3.4367125 1.3903983 2.755366 -0.031089174 -3.6014326 -0.4235611 -0.24996594 -1.8027083
1.1298311 -2.5144668 -1.0091687 -1.2347418 0.45150402 0.41951907 -0.932328 -0.7506498
-2.0340862 -3.0598545 -1.4637538 -0.6773724 1.0663323 0.83964574 -0.5520977 -0.29412955
-2.2205822 -3.522968 -1.9539218 2.7847722 -0.24057022 -1.5576024 -2.3121624 -0.16753805
-2.6984398 -1.3205819 -2.0077744 -0.74099225 -1.6347145 -2.274248 -1.1429001 -0.7029712
-1.064066 -0.8228705 -1.7420996 -1.4841194 -0.9621123 -0.758337 -1.4488269 -1.9096792
-0.15127744 -0.588777 -1.9263535 0.23568262 -1.2073574 0.09965687 0.29288146 -0.16902116
-0.53908855 -1.2565365 -1.4131539 -0.98627186 -0.8638748 -0.60321265 -0.5907486 0.12664008
-1.6276791 -0.031264324 -0.008952078 -1.5432469 0.9854775 2.5770488 -0.2757378 -0.47971258
0.5593296 -0.9348834 -2.4653268 -0.94060487 -2.0057557 -1.2435601 -1.777066 -1.3929955
-2.0903084 -0.40912274 -1.9828991 -1.7372533 2.874206 -3.2491593 -3.367232 -1.2026045
-1.0033263 -0.23023263 -1.8658094 -2.6295528 0.3441587 -0.29791385 -0.17584361 -0.5114413
-2.3404655 3.8647974 -2.2785258 -1.3597854 -1.2221715 -2.2415886 -1.5525744 -1.2340795
0.06455175 -1.1537677 -0.20443209 0.1826367 -0.97915804 3.603626 -0.18431233 1.1092846
0.928628 0.19349112 -0.8027365 0.49998876 -0.8553495 0.102717035 -1.3954271 0.63632226
0.70277405 -0.13055386 0.38247964 -0.9861361 -1.7407944 -0.22511378 -0.17454231 0.5648745
1.5645785 0.84135693 -0.95647067 1.0748224 -1.2449794 -0.5005336 2.543346 1.8469527
-3.7589426 -0.4533167 -0.69479614 -1.4437143 0.14881477 -1.9121618 -2.043882 -1.1289735
-1.4664799 0.8657081 -0.72180617 -0.74599904 -2.647106 -0.110706605 -1.2146766 -2.192714
1.2333554 0.39333516 -0.44718388 -0.73404235 1.8132173 -1.3339727 -1.8028731 -0.41807076
-1.780058 -1.5983447 -1.1942091 -0.94436014

critic.mlp.0.weight f4 [10, 9]
00000000: 57b2 9abc 6594 173e 65f7 a3be a1a1 e73c
00000010: 7f17 3abc f247 763d 182f db3c ea86 6b3e
00000020: 8983 023c f8e6 823c bf48 c5be f566 bfbe
00000030: 2c45 7d3b 68df 35be 0d85 05bf e58a 4c3d
00000040: f01a c83e 548f ee3d e762 8dbe 58f7 9ebe
00000050: fdf3 4a3d bf77 463e 4522 d5bc fbe0 303e
00000060: 0714 ee3b 0b93 96be b55a 773e 7af5 bbbe
00000070: 85dd 72be 0c32 06be 1ee9 19be 7785 803e
00000080: 699d 86be 7196 31be 1299 82be 7b34 abbe
00000090: 4c95 8dbe 6463 343e 3126 0d3d b10d 343d
000000a0: 8446 9ebd 4da4 93be 458d febb 56e2 b5be
000000b0: 366a acbe 1740 81be 45ec 203e 40c8 94be
000000c0: 5aef b9bd 3752 e43d c159 ccbe 2a5e d13e
000000d0: 2305 17be b3d3 1dbe 5318 393e a25d 04be
000000e0: 0eae c33e dfbe 04be 09bc 88be ed89 a83e
000000f0: 8796 fb3d a7bf 833e f1f7 19be b14b 9dbc
00000100: ce76 c73d 0fb6 9c3e dd43 753c ac74 a1bb
00000110: 9697 403f 3551 4b3e 685f 95be ef4b 8ebd
00000120: 3769 b33c 2bf5 d93e b183 5bbe 4548 8b3c
00000130: 532b c33d d67b 7cbf 758c 8d3d 7056 18bf
00000140: 9a5f 09bf 963e d73d c27d 843e fd46 45bf
00000150: de36 0dbe 56d6 cabd d10c 1bbf 41b4 babd
00000160: 18b6 483d cd7c c7be
-0.018883867 0.14802702 -0.32024685 0.028275313 -0.011358141 0.060127206 0.026755854 0.23000684
0.007965931 0.015979275 -0.38532063 -0.37383237 0.0038645966 -0.17761004 -0.52156144 0.049937148
0.39083052 0.116484314 -0.2761452 -0.31048083 0.04954909 0.19381617 -0.026017318 0.17273323
0.007265571 -0.2940906 0.24155696 -0.3671072 -0.23717315 -0.13105029 -0.15030333 0.25101826
-0.2629197 -0.17342545 -0.25507408 -0.33438477 -0.27652967 0.1761604 0.03446025 0.04395837
-0.077282935 -0.2883629 -0.0077683055 -0.35524243 -0.33674783 -0.2524421 0.1571513 -0.2905903
-0.09078856 0.11148494 -0.39912227 0.40892154 -0.14748053 -0.15412788 0.18075685 -0.12926343
0.3821873 -0.12963437 -0.2670596 0.3291773 0.1228457 0.25732157 -0.15035988 -0.019201132
0.09739457 0.3060765 0.014969793 -0.0049272384 0.752313 0.19855197 -0.29174352 -0.06948077
0.021900756 0.4256986 -0.21436955 0.017002234 0.09529748 -0.9862646 0.06911556 -0.59506893
-0.536615 0.10509984 0.25877196 -0.77061445 -0.13790461 -0.099041626 -0.6056643 -0.09116412
0.049001783 -0.38962403

critic.mlp.0.bias f4 [10]
00000000: b71e 883e a2c6 363e a7fd 343e 67dc 8e3d
00000010: f5bc e1be f616 aabe fc04 813d 468d 723b
00000020: 52be c7be e09b 9bbe
0.26585934 0.1784921 0.17674886 0.06975632 -0.44089475 -0.33220643 0.06299779 0.0037010475
-0.3901239 -0.3039236

critic.mlp.2.weight f4 [1, 10]
00000000: dc77 f63c 1a3b 8d3e 8043 29be 078d 1e3d
00000010: 4e8b 4dbe 4ab7 2e3d d5d1 9ebd b91a 9fbd
00000020: 295f 403e 9d3e e8b8
0.03008645 0.27584153 -0.16529655 0.038708713 -0.20072672 0.042655267 -0.07754866 -0.07768769
0.187863 -0.00011074285
