src/models/threefish/logic/pre-defined rules___.pth (torch, 3035 bytes, 4 tensors)

actor.im.W f4 [6, 6]
0	0xbf5a96c5	-0.85386306
1	0xc00d6a0b	-2.2095973
2	0xbfd0223f	-1.6260451
3	0x409b55d6	4.854228
4	0xbf3ccbaa	-0.73748267
5	0xc0630279	-3.547026
6	0x3f8454e5	1.0338408
7	0xbd87d3e0	-0.06632209
8	0xbd67f078	-0.056625813
9	0x3f0010bc	0.50025535
10	0x3e97976a	0.29607707
11	0x3fae56f3	1.3620285
12	0xbe266603	-0.16249852
13	0xbf4bd91b	-0.7962815
14	0x3fa60956	1.2971599
15	0xbf15e6da	-0.58555377
16	0x3f8cf2af	1.1011561
17	0xbf8f66b4	-1.1203218
18	0x3eb18e58	0.34678912
19	0xbf40a52c	-0.7525203
20	0xc018d3ba	-2.3879228
21	0x3f5651b5	0.83718425
22	0x3f58db1c	0.84709334
23	0xbef86b43	-0.48519334
24	0x401fbfb1	2.496075
25	0xbfd72ec7	-1.681115
26	0xbe3aa272	-0.1822603
27	0xbed6dda2	-0.41965967
28	0x3fa78191	1.3086416
29	0x3f9f4538	1.2442999
30	0xbf523a16	-0.8211988
31	0x3faa6fc0	1.3315353
32	0xbfebc39a	-1.8419068
33	0xc03cd59c	-2.9505377
34	0xbfa46752	-1.2844031
35	0xbf47d98e	-0.7806634

critic.mlp.0.weight f4 [10, 9]
0	0x3d53387c	0.05156754
1	0xbda60bff	-0.08107757
2	0xbefbf20e	-0.4920811
3	0xbe037b6e	-0.12840053
4	0xbdedc857	-0.116104774
5	0x3ed93302	0.42421728
6	0x3db14ab4	0.086568266
7	0x3e725042	0.23663428
8	0xbe4e695a	-0.20157376
9	0x3cf0c7c1	0.029392125
10	0xbe844eba	-0.25841314
11	0xbef56806	-0.47930926
12	0x3b897ddc	0.004195912
13	0xbe1d0b51	-0.15336348
14	0xbd90408a	-0.0704356
15	0xbc9641da	-0.018341947
16	0x3eed4005	0.46337906
17	0xbcaed2eb	-0.021340808
18	0xbd916f28	-0.071012795
19	0xbc64182c	-0.013921779
20	0x3f600019	0.8750015
21	0x3e47a434	0.19496232
22	0x3c9709be	0.018437263
23	0x3eec4a95	0.46150652
24	0x3b628708	0.0034565348
25	0x3df37e6b	0.11889347
26	0x3f31ebe2	0.69500554
27	0xbb70787f	-0.0036692915
28	0xbd99227c	-0.074772805
29	0x3e67aedc	0.22625297
30	0xbad997d5	-0.0016601036
31	0x3e912677	0.2834966
32	0x3d7c11f3	0.061540555
33	0xbe87daf0	-0.26534224
34	0xbf27bca7	-0.65522236
35	0xbf41eaaf	-0.75748724
36	0x3bc058e5	0.005869972
37	0x3e9fb96e	0.3119616
38	0x3dd6e863	0.10493543
39	0x3cccaa76	0.024983626
40	0x3c8d7a8b	0.017270347
41	0xbe8efc58	-0.27926898
42	0xbdd25183	-0.102694534
43	0xbedb2aa4	-0.4280597
44	0xbedb8e8e	-0.42882198
45	0xbe080182	-0.13281825
46	0x3e571a8b	0.21006219
47	0xbeacc7e9	-0.3374627
48	0xbe95bf99	-0.2924774
49	0x3db1a1de	0.08673452
50	0x3e238d02	0.15971759
51	0x3eba1940	0.3634739
52	0xbe6078ae	-0.21921036
53	0xbe12a13c	-0.14319319
54	0x3e878c59	0.26474264
55	0xbe18d547	-0.14925109
56	0x3f0684c6	0.52546346
57	0xbe80868b	-0.25102648
58	0xbdc6cf82	-0.09707548
59	0xbe1f08f0	-0.15530753
60	0xbdbb0924	-0.09132603
61	0x3e512c5b	0.20427077
62	0x3d4c2ab0	0.049845397
63	0x3da664df	0.081247084
64	0x3e0b412b	0.13599078
65	0x3f04e6ba	0.5191456
66	0xbd8c3ad5	-0.06847159
67	0xbd3478b4	-0.044060424
68	0x3e9ee387	0.31032965
69	0x3e5ec17f	0.217535
70	0xbe529be3	-0.20567279
71	0x3d6bc2b0	0.057558715
72	0x3d6e1b9a	0.05813179
73	0x3ede5d08	0.43430352
74	0xbe36ebec	-0.17863435
75	0x3d278b6e	0.040904455
76	0x3e94da53	0.29072818
77	0xbf2a3af6	-0.6649622
78	0xbc94ff02	-0.018188003
79	0xbf5c001a	-0.85937655
80	0xbe938db8	-0.2881906
81	0x3e3f33b7	0.18672071
82	0x3e8edd8e	0.27903408
83	0xbf7acb9e	-0.97966945
84	0x3dddd8a7	0.10832339
85	0xbd3bb64c	-0.04582815
86	0xbe852d74	-0.2601124
87	0x3cdaf16c	0.026726447
88	0x3d25b12a	0.04045216
89	0xbee7c286	-0.45265597

critic.mlp.0.bias f4 [10]
0	0x3b2aad28	0.002604315
1	0x3e0639cd	0.13107987
2	0x3e774c01	0.24150087
3	0x3e1fa87b	0.15591614
4	0xbecb44b0	-0.39700842
5	0xbcb9316e	-0.022606578
6	0x3e2febd1	0.171798
7	0xbe25ca33	-0.16190414
8	0x3da9795a	0.08275099
9	0xbc5b447b	-0.013383026

critic.mlp.2.weight f4 [1, 10]
0	0x3de5d019	0.11221332
1	0x3eb5fe4f	0.35545585
2	0xbe04508f	-0.12921356
3	0xbe8ac78d	-0.2710537
4	0xbe90ef13	-0.283074
5	0x3da96cf8	0.08272737
6	0xbe343354	-0.17597705
7	0xbe08ce26	-0.1335989
8	0x3e854532	0.26029354
9	0x3d8a3271	0.06747902
