src/models/threefish/logic/pre_defined_rules.pth (torch, 2971 bytes, 4 tensors)

actor.im.W f4 [6, 6]
00000000: 6a56 d13e 1273 dbbd cf36 bbbf f829 9e3f
00000010: 27b2 49bf 532b 1d3e 34a7 2cc0 42df 54c0
00000020: dda7 4ec0 88c3 4bc0 ec1b 35c0 3c9c 923f
00000030: 72ae b63f 3a0b ea3b 877f cb3d 23e3 c53d
00000040: c7b6 0f3f 4a46 e4bf 62d5 cd3e 8d46 5fbf
00000050: 20be 0440 7c96 b23f 6d6b b23e 58c6 acbe
00000060: b60b b33e aea0 333f 1f07 98bf de03 d7bf
00000070: b3a4 56bf 8fb8 97bf 7c74 40bf 4e4f f8bf
00000080: 15fe aabf 614e 1ebd c5f0 7c40 1e12 c4be
0.4088624 -0.10715307 -1.4626101 1.2356558 -0.78787464 0.15348558 -2.6977053 -3.3261266
-3.2289956 -3.1838093 -2.8298292 1.1453929 1.4271986 0.0071424516 0.09936433 0.096624635
0.5613827 -1.783395 0.4020186 -0.87217027 2.0741043 1.3952174 0.34847584 -0.33745074
0.34969872 0.7016705 -1.1877173 -1.6798055 -0.8384506 -1.1853198 -0.7517774 -1.9399202
-1.335879 -0.038648967 3.9521954 -0.38295072

critic.mlp.0.weight f4 [10, 9]
00000000: dd39 e33d ac96 3b3d 1d03 f43e cdcd 70be
00000010: ea83 20bb c96c 2a3c 0cf0 57be 9471 ca39
00000020: 2325 04bf 4038 d9bd b7e7 8ebe 301e 58be
00000030: 31ba a03e 0e7f a9be ee29 08be 1050 bebc
00000040: 66e1 5dbe 13bc 4abe c222 91bc cda9 223e
00000050: a503 943e b3e4 ff3d 9206 7b3e 35c5 92be
00000060: 1618 663e 9e13 173d ebfc 40be c0bf 883d
00000070: 1288 9d3d 1935 333c a273 d83e 2b87 1d3d
00000080: b1d1 b6bd bbf0 b43d cd72 653e 431d 32be
00000090: f4de 333e 201a 363e 5d8d 93be d8ae af3d
000000a0: 39ae 813e fdd3 97be 8120 c63a 41e8 383e
000000b0: 047a c83e bfb4 49be 79d9 62be 6c2f 563e
000000c0: 043a 8f3e 0ab4 ca3c 89de e33d 7fc5 69be
000000d0: d074 bebd bd33 75be 54e7 2c3e eb8a 60be
000000e0: c65b 303e ccce e1bd 2706 4a3e 3c82 23be
000000f0: 18f1 783e 07dd be3d 3c0e b7be 663a 123d
00000100: 0aec 01be 32e6 6bbb f7db b33e 4017 353e
00000110: d7f5 fdbc 1b2b 093e 5571 c63c b4fe 19be
00000120: 7283 77bd bfc4 a83d 26ba 36bd 4822 363e
00000130: 4fe4 ac3e 5644 63be bed6 0f3e 48ff eabc
00000140: 1349 92bd 8e63 a4be ee8d 41be 7a32 dfbd
00000150: 0e85 ba3b e297 4bbc 6f31 b9be 4276 573e
00000160: 93c2 143e bc48 7fbc
0.11095021 0.04579799 0.47658625 -0.23516007 -0.002449269 0.010401913 -0.21087664 0.00038613065
-0.51619166 -0.10606432 -0.2791116 -0.21105266 0.31392053 -0.33104748 -0.13297245 -0.023231536
-0.21668014 -0.19798307 -0.01771677 0.15885086 0.2890903 0.12494793 0.24514225 -0.28666082
0.22470126 0.036883943 -0.1884648 0.066771984 0.07691969 0.010937952 0.4227572 0.038458984
-0.08926714 0.08834978 0.22407074 -0.17393975 0.17565519 0.17783403 -0.2881879 0.08578271
0.25328234 -0.29653922 0.0015115888 0.18057348 0.3915559 -0.19697855 -0.22153272 0.20916528
0.2797395 0.024744052 0.111264296 -0.22829245 -0.09299624 -0.23945518 0.1688512 -0.21927993
0.17222509 -0.110257715 0.1972891 -0.15967649 0.2431072 0.09319501 -0.35753047 0.035700224
-0.12687698 -0.0035995361 0.35128757 0.1768465 -0.031001015 0.1339535 0.024223963 -0.15038568
-0.06042809 0.08240651 -0.04461112 0.17786515 0.33767936 -0.22194037 0.14046761 -0.02868618
-0.07142844 -0.32107204 -0.18901798 -0.108982995 0.005692131 -0.012426348 -0.36170527 0.21041206
0.14527349 -0.015581306

critic.mlp.0.bias f4 [10]
00000000: 5814 d6bd 6ff3 93be 441b abbd 2626 3cbe
00000010: 6be6 5b3d 3230 eebd b260 523e 288f 893e
00000020: f56d 893e 4fb0 c03d
-0.10453099 -0.28896663 -0.0835481 -0.18373927 0.05368654 -0.11630286 0.20544699 0.26867032
0.26841703 0.09408628

critic.mlp.2.weight f4 [1, 10]
00000000: 8f66 f73e 1273 403e 399d 74be ebc8 9dbd
00000010: 3820 183e 5faa cabd 569c 0a3e 82f8 69be
00000020: 1f2a b33d bc9b 3a3d
0.48320433 0.18793896 -0.238881 -0.07704338 0.1485604 -0.09895777 0.135362 -0.22848704
0.08748268 0.045558676
