src/models/loot/logic/beam_search_top1.pth (torch, 7451 bytes, 4 tensors)

actor.im.W f4 [8, 8]
00000000: 3bcb b8be dc70 85bf 5935 6d3f 3736 233e
00000010: fc72 5540 e5b2 33c0 1cd1 aebf 4818 0bc0
00000020: 6e45 17bf ef88 333f dc07 983f e4ee 673f
00000030: 846e 123e cb74 26bd 3b59 0bbe d9a5 87bd
00000040: 90f3 e6bb ed39 acbf bb7a 0b3f d7de 0dc0
00000050: 36f5 7ec0 8e71 2cbf 9cb4 1440 f8ba 06c0
00000060: 7603 1e40 101f c8bf b888 153c 1f1d c5be
00000070: 548e a73f 335f a73f c967 cbbd 2d1d 5a3e
00000080: 0f7c 5bc0 1d42 8cc0 f5fe 2bc0 4692 17c0
00000090: 04d9 fbbf 235f 8d40 8807 4dc0 7cf3 3ec0
000000a0: cca9 29bf 5beb 77bf c210 a1bf abe0 c63f
000000b0: 12e0 16be 1d3f 44bb 5e6a 6abf 63b4 963f
000000c0: 478d 8fc0 eabc 34c0 87c7 48c0 a006 1ec0
000000d0: 6f8c 6ec0 6bcc 7ec0 3a0e 56c0 cddc 5e40
000000e0: d0c7 e5be d76b 433f 6908 44bf 1e13 65bf
000000f0: d432 96bf 18c6 4bbf c024 a9bf 2829 0ac0
-0.36092553 -1.0425067 0.9265953 0.1593865 3.335143 -2.8077939 -1.3657565 -2.173357
-0.59090316 0.7013082 1.1877398 0.90598893 0.14299971 -0.040638726 -0.13608257 -0.0662343
-0.007048078 -1.3455178 0.54484147 -2.216726 -3.9837165 -0.6736077 2.3235235 -2.1051617
2.4689612 -1.563448 0.009126835 -0.3849878 1.309031 1.3075927 -0.09931905 0.21300192
-3.429447 -4.3830705 -2.6874363 -2.3683028 -1.9675603 4.4178634 -3.2035847 -2.983611
-0.66274714 -0.968435 -1.2583239 1.5537313 -0.14733914 -0.0029944845 -0.91568553 1.17738
-4.485996 -2.8240304 -3.1371782 -2.4691544 -3.7273214 -3.9812267 -3.3446183 3.4822266
-0.44879007 0.76336426 -0.7657533 -0.89482296 -1.1734262 -0.7959914 -1.321434 -2.158762

critic.mlp.0.weight f4 [40, 28]
00000000: 1d55 d73d 4a21 863d 1e46 1fbe d56a 0ebe
00000010: 3757 f13b 86c9 533d 3906 883d 2349 613e
00000020: e6d6 5a3c 3cc9 363c 0bce 553c f63a 073d
00000030: be36 9bbf 6a30 8dbf faa1 fdbb 8f07 9e3d
00000040: c9c7 673d 2834 383e 2864 6dbd f8c5 46bc
00000050: f593 8c3d e2b1 203e d34d 1fbd c8cf 103e
00000060: e988 f9bc b7d0 a33c cc39 2f3e 4f85 33be
00000070: aa0c 813d eb55 503e d1dd 96bd 1533 273e
00000080: 82f7 41be f94e 94be 9e14 90bd 032a ecbd
00000090: 313f 8d3d 7397 963e c682 153e 9cf3 1c3e
000000a0: 46d4 64bd e2ea a5bc 66cc bf3d bd0d ebbd
000000b0: cabd 36bd 6b19 85bc e041 393e 899f 303e
000000c0: fca5 abbd 5571 dfbb 6388 f73d e961 403e
000000d0: 889b 993d 9b24 d13c 44c0 013e 32e3 e3bd
000000e0: 36f3 6cbe 5562 87be e01f 06be adef c7bd
000000f0: 73ac 093e 066d 903d 6f36 10be 570c e73c
00000100: 6487 723d e3b4 1b3d e08b b1bc ca1c 743c
00000110: f36f 033e ab06 8a3e 19b6 32be 2500 c9bd
00000120: f5f3 303e f5a4 2a3e 93d1 0a3e 7a2b 0d3e
00000130: 2b0d 1a3d 9c47 28be e16a 8e3c ad21 f2bd
00000140: 8759 34be 6af0 2b3e a624 133e 180a 41be
00000150: c145 dc3d 5472 90be 9cc3 febc 102b b1bd
00000160: ff4f 083e ae4f 03be 0700 8c3c 4faf 313d
00000170: 9870 e43d 10a5 10ba 06f9 74be e2f9 32be
00000180: 1266 1b3e 5924 a33d d866 4cbe 6cdf 24be
00000190: b077 cf3c e9bb 163e f5d1 09be 6e4b ccbd
000001a0: 3e58 38be ba9c 5ebb f6ba 11be 7145 15be
000001b0: a59a 2abc 2972 e83c b880 9ebd 84a8 e53d
000001c0: e585 9bbc 1f28 d33e 239e 043e b530 23be
000001d0: d9ff b1bd cb6d 8a3d 8e35 893c c241 0b3d
000001e0: 3cf3 483d 515c f1bc 6703 d3bd 33f9 a03d
000001f0: a2ce 9ebc e72d 883d 2b1b 6ebd a5b2 d2bd
00000200: 88ee 2abd 58ff c6be 21fd 50bd 6042 f23c
00000210: f523 fcbd 3de6 1ebc a687 0a3e 4126 9fbc
00000220: f11a ac3b 7a8e 85bc 58a8 1c3d af17 f63d
00000230: afa0 923e 2616 943e 7aba 373e afed 5fbc
00000240: 2c1e 2fbe 2914 43be 9263 573e 8bbb a43d
00000250: 16e0 0c3d c0b5 d9bd 6df7 c2bd a56b 9fbd
00000260: a6f8 bcbe edbf 87be c93e 3c3e 0507 cebd
00000270: 874d 81be 5e87 e9be 9ed6 2a3d 0ff5 a43b
00000280: 1319 15bd b6fb 17bd 38a7 2dbe 3217 27be
00000290: a540 f2bc b82a 203b 10d2 afbd c7cb 913d
000002a0: 314d b7be 70b7 97bb ee2e 2a3e 65de 9dbd
000002b0: 153d d93e 1df8 0bbd 2662 35be 3465 e73d
000002c0: 9b99 4abe 3b37 b1bd 9d01 143e 3e1f 23be
000002d0: ed19 113d 7170 273e 1374 033e e01c 3d3d
000002e0: 55f1 62bd 0d18 323d 2d1c 55bd d2c1 3dbd
000002f0: 7479 1fbe 86b6 d13d 1ea6 193e e268 043e
00000300: d680 08be 0e18 0a3c d56a 08be 960e d5bd
00000310: 626a 94bd 975c f8bc bea3 e6bd c61a 87bb
00000320: b17f 3fbd 5dac 903d 45e7 15be bc78 08be
00000330: 39a6 e5bd 976a 913d 365d 92bd 699c 1f3e
00000340: af60 363d 8a4d ad3c e8ea a1bb 177f 27bd
00000350: e468 62bd 5bce fabd 3055 9fbb b693 a83c
00000360: e15e 17be 87db cabd a443 1c3e 7a0c 1dbe
00000370: 1a55 5ebc 716f 3f3e c5cf 8b3d 9a54 af3b
00000380: 168a babe e39b 5a3c c9d6 09be 2dbb 5bbd
00000390: 1c2e 763d 366d 023c 1c79 483d bf9d 4f3e
000003a0: 13da 093e 5e63 343e ed60 263e aeaf 94bd
000003b0: 1c8c de3d 3d9d abbd a910 08bd d2d6 d13d
000003c0: 2285 343e 5069 c83d 5db8 64bc a53e 413d
000003d0: 4b41 c73d 4926 3bbe dde8 0b3e 3306 20be
000003e0: bdb2 2a3b e79a 03bd 58d7 cbbd 9d9e cc3c
000003f0: 427c 8a3e cf6d 9dbe e0c7 e5bd 0b24 8fbd
0.10514281 0.06549318 -0.15554091 -0.1390794 0.007365133 0.05170586 0.06641812 0.22000556
0.0133569 0.011156376 0.013049613 0.033015214 -1.2126081 -1.10304 -0.0077402564 0.077162854
0.056587014 0.17988646 -0.057956845 -0.01213216 0.06864158 0.15692857 -0.03889258 0.14141762
-0.030460792 0.019996984 0.17111892 -0.17531322 0.063012436 0.20345275 -0.07366527 0.1632808
-0.18942073 -0.289665 -0.070351824 -0.115314506 0.068968184 0.29412422 0.14600667 0.15327305
-0.055866502 -0.020253602 0.09365158 -0.1147723 -0.04461459 -0.016247472 0.18091536 0.17248358
-0.083812684 -0.00681893 0.120865606 0.1878735 0.07500368 0.02553015 0.12671 -0.111273184
-0.23139653 -0.2644221 -0.13098097 -0.097625114 0.1344469 0.070520446 -0.14083265 0.028204126
0.05921115 0.038014304 -0.021673143 0.014899442 0.12835674 0.26958212 -0.17452277 -0.09814481
0.17280562 0.16664489 0.13556509 0.13786116 0.037610214 -0.16433567 0.017384948 -0.118228294
-0.17612277 0.1679093 0.14369449 -0.18851507 0.10755492 -0.28212225 -0.031099133 -0.08650792
0.13311766 -0.12823364 0.017089857 0.043380078 0.11154288 -0.00055177603 -0.2392312 -0.17478135
0.15175655 0.07965917 -0.19961107 -0.16100854 0.025325626 0.1472012 -0.13458999 -0.099753246
-0.18002412 -0.0033967928 -0.14231476 -0.14577271 -0.010412847 0.028374748 -0.07739395 0.112137824
-0.018984744 0.41241547 0.1295095 -0.15936549 -0.08691377 0.067592226 0.01674917 0.03399826
0.04906009 -0.029462965 -0.10303383 0.07860031 -0.01938564 0.0664938 -0.05813138 -0.1028798
-0.041731387 -0.38866687 -0.051022653 0.029572666 -0.12311546 -0.009698448 0.13528308 -0.01942742
0.005252235 -0.01630329 0.038246483 0.12016236 0.28638217 0.28923148 0.17942229 -0.013667508
-0.17101353 -0.19050659 0.21034077 0.080435835 0.034393393 -0.10630369 -0.09519849 -0.077842034
-0.36908454 -0.26513615 0.18383326 -0.100599326 -0.2525446 -0.4561109 0.04170858 0.005034096
-0.036400866 -0.037105285 -0.1695832 -0.16317442 -0.02957184 0.0024439525 -0.08584988 0.071189456
-0.3580108 -0.0046300218 0.16619465 -0.07708434 0.42429414 -0.034172166 -0.17713222 0.112986
-0.19785158 -0.086531125 0.1445374 -0.15929887 0.035425115 0.16351487 0.12837248 0.046170115
-0.055405933 0.043479968 -0.052028824 -0.04632742 -0.15573674 0.10239892 0.15004775 0.12930635
-0.13330397 0.008428587 -0.13322003 -0.10403173 -0.072468534 -0.030317588 -0.112617 -0.0041230647
-0.046752635 0.07064126 -0.14639004 -0.13327307 -0.11213345 0.071004085 -0.07146685 0.1558701
0.0445258 0.021155138 -0.004941333 -0.040892687 -0.055275813 -0.122463904 -0.00486245 0.020578247
-0.14782287 -0.09905153 0.15260178 -0.1533679 -0.0135700945 0.18694855 0.06826738 0.0053506615
-0.36433476 0.01334283 -0.1346084 -0.0536453 0.060102567 0.007960608 0.048943624 0.20275019
0.13462095 0.1761603 0.16247912 -0.07260071 0.108665675 -0.083796 -0.033219013 0.10246052
0.17628911 0.09785712 -0.013959971 0.047178883 0.097292505 -0.18276323 0.13663049 -0.15627365
0.0026046478 -0.03213015 -0.09953183 0.024977976 0.27047926 -0.3074784 -0.11219764 -0.069892965

critic.mlp.0.bias f4 [40]
00000000: 1cc3 223d 4161 e1bd a9cc 1ebe 9c05 23bd
00000010: e490 41be a4ae 613d 9cb2 03be d7c5 09be
00000020: dc1e f83d 33e4 38be 8847 51be 3288 a73d
00000030: 869d d1bc 0d58 cc3d e30c 50bd eda5 cdbd
00000040: 2842 18bd 029d 983a 0a1b 243e 0e13 22be
00000050: abb9 8fbc 0f3b d6bc f394 c8bd 23c4 acbd
00000060: 1efc 403d fe02 70be 61f2 bb3c e358 5ebe
00000070: 41f1 e43d d148 52be b120 e53d e963 84be
00000080: 3460 37be 8a58 033c ffda 3c3e 2529 2dbe
00000090: 1c06 1bbe 5936 543e 5830 d73a d384 4c3d
0.039736852 -0.11004878 -0.15507759 -0.03980027 -0.18902928 0.05509819 -0.12861103 -0.13454376
0.12115261 -0.18055801 -0.20437443 0.08180274 -0.025587808 0.09977732 -0.05079354 -0.100414135
-0.037172467 0.0011643472 0.1602594 -0.15827581 -0.017544588 -0.026151208 -0.09794035 -0.084358476
0.047115438 -0.23438641 0.022942724 -0.21713595 0.11178828 -0.2053559 0.11187876 -0.25857475
-0.17907792 0.008016715 0.18442915 -0.16910227 -0.1513905 0.20723857 0.0016417606 0.04993136

critic.mlp.2.weight f4 [1, 40]
00000000: 645d a0be ca01 d8bd e5db 04be b8ba 123e
00000010: dbe8 863e 6491 4abe 3cd5 8bbe cb05 26bc
00000020: 92c0 b3bd a4e2 95be 99aa b0be a674 de3d
00000030: 43c0 21bd fac9 09be d748 2ebe 20eb 813e
00000040: 0a94 b33e 8773 d43e 95d2 14be e178 97be
00000050: c009 983e 85b2 aebe 573c 933d ca54 13bf
00000060: ce8b 0cbd 5aba 82bd 9b8c 1cbe 4a97 2d3f
00000070: a47e 243f 1e70 8dbe 5952 59be 1941 69bc
00000080: d1ea daba 202c bf3e f587 c23e 852d 55bf
00000090: 0070 c03b 8af2 8bbe 1273 be3e 5c79 c1be
-0.3132125 -0.10547216 -0.12974508 0.1432904 0.2634953 -0.19782025 -0.27311122 -0.010133217
-0.08776964 -0.29274476 -0.34505156 0.10862093 -0.039489996 -0.13455954 -0.17019974 0.253747
0.35073882 0.4149439 -0.14533456 -0.2958441 0.2969494 -0.34120575 0.07189243 -0.5755125
-0.034313016 -0.063832 -0.15288012 0.67808974 0.6425574 -0.276246 -0.2122282 -0.014236712
-0.0016702061 0.37338352 0.37994352 -0.8327258 0.0058727264 -0.2733348 0.37197167 -0.37787902
